nnv/onnx/safeNLP/ruarobot/perturbations_0.onnx (onnx, 18423 bytes, 4 tensors)

StatefulPartitionedCall/model_2/predictions/MatMul/ReadVariableOp:0 f4 [128, 2]
-0.4889699 0.7001061 0.32407403 -0.30971494 -0.56075156 0.3958002 0.4408631 -0.31785604
-0.8101478 0.97646654 0.7888284 -0.6021302 0.26103303 -0.07397296 -0.47074437 0.6921328
-0.36152866 0.60301656 -0.009648852 -0.33919486 -0.65209883 0.78125155 -0.5009263 0.46217573
0.5044676 -0.38755825 0.20182723 -0.3200301 0.14274141 -0.25539607 -0.73707825 0.59840935
-0.8145776 0.6923785 0.17532448 -0.17092696 0.82902306 -0.99734545 0.23143959 -0.3539507
-0.56134117 0.4332451 0.39686838 -0.059474867 -0.43198633 0.5767404 0.044966232 -0.3256121
-0.71800816 0.5121091 -0.8340627 0.81181496 0.2274395 -0.35635775 -0.31421387 0.40477484
-0.63199526 0.6437575 -0.34959015 0.51532906 0.2874608 -0.36520913 -0.6603369 0.56562907
0.6184018 -0.25741017 0.18217789 -0.13164578 -0.5211666 0.6061667 -0.63658357 0.70996356
-0.5574048 0.68830943 0.39149457 -0.064206265 0.57624406 -0.39689824 0.37908322 -0.36370248
-0.7455431 0.69041866 0.42858577 -0.39891142 -0.40371725 0.29089293 -0.4767913 0.2505226
-0.6480303 0.4829109 0.30899984 -0.30932093 0.49877873 -0.17340945 -0.51267 0.6929684
0.05937745 -0.3075341 0.16838159 -0.4497152 0.27798888 -0.60972667 0.21486157 -0.32980794
0.261758 -0.34174377 -0.6898357 0.91290534 -0.72976047 0.9536851 -0.6404164 0.8301219
0.2999659 -0.44863078 0.29573438 -0.11934512 0.22974193 -0.08169742 -0.6439006 0.7416042
0.33345166 -0.10298558 0.2939646 -0.46830985 -0.46714607 0.19941016 0.36592397 0.036302526
-0.43245238 0.5384453 -0.6139804 0.4648404 -0.72419953 0.6876148 0.62465686 -0.33123916
-0.49660474 0.6293935 0.41352952 -0.4225235 0.38069457 -0.16623129 0.38869488 -0.1412704
0.30867162 -0.57666296 0.18006043 -0.4048053 -0.47632125 0.35719594 0.72083867 -0.7242095
0.1372652 -0.286308 0.4259867 -0.26275945 0.3938953 -0.2859376 -0.9741721 0.76462984
0.45608625 -0.21837242 0.42257464 -0.17844759 0.24000454 -0.12194261 -0.32442826 0.47328526
-0.50670946 0.29942146 0.30210263 -0.3359424 0.9333975 -0.85445803 0.3652952 -0.3428951
-0.29870024 0.10688337 0.3018043 -0.33209664 0.2215017 -0.31029695 0.0902692 -0.29683238
0.4412813 -0.4228172 0.39103225 -0.3969488 -0.55466473 0.65773547 0.15407796 -0.41897482
0.30909973 -0.36059225 -0.48198003 0.6034205 0.42933938 -0.26171693 0.34931114 -0.3393424
0.14407748 -0.12246719 -0.47899872 0.43227953 -0.32080406 0.5265995 -0.5434629 0.6661821
-0.033562373 -0.34633857 -0.56679416 0.90225655 0.7291728 -0.49123865 -0.7521716 0.66694826
0.11388021 -0.34216282 -0.47632986 0.45384988 -0.6401406 0.85782474 0.43438014 -0.3997635
0.3211644 -0.37622276 -0.6103221 0.77644086 0.4999519 -0.6522838 0.31907773 -0.23765111
-0.5845245 0.2180559 0.46153826 -0.6104782 0.4195136 -0.35681388 -0.3703474 0.3754366
-0.6206407 0.6438091 -0.62686574 0.48040068 0.35542056 0.00816961 -0.94411075 0.7448896
0.21556155 -0.20372501 0.28955507 -0.20831859 0.08283613 0.0022678783 0.27999783 -0.13288666
00000000: 435a fabe 273a 333f 08ed a53e f592 9ebe
00000010: 6a8d 0fbf 53a6 ca3e cfb8 e13e 07be a2be
00000020: d965 4fbf b6f9 793f a8f0 493f 3425 1abf
00000030: 1fa6 853e 237f 97bd 6805 f1be 9d2f 313f
00000040: 491a b9be 4b5f 1a3f 3816 1ebc f3aa adbe
00000050: f3ef 26bf 1a00 483f b53c 00bf 4ca2 ec3e
00000060: ca24 013f 096e c6be ccab 4e3e fcda a3be
00000070: ce2a 123e 46c3 82be 29b1 3cbf 5b31 193f
00000080: 2888 50bf b83f 313f 4388 333e 7a07 2fbe
00000090: db3a 543f 0852 7fbf 80fe 6c3e 0739 b5be
000000a0: 0eb4 0fbf 4dd2 dd3e 5532 cb3e eb9b 73bd
000000b0: 502d ddbe 42a5 133f 832e 383d a1b6 a6be
000000c0: 62cf 37bf 9519 033f 2285 55bf 1bd3 4f3f
000000d0: e6e5 683e 8674 b6be a4e0 a0be a63e cf3e
000000e0: 71ca 21bf 4bcd 243f 7bfd b2be 9bec 033f
000000f0: 102e 933e b1fc babe d70b 29bf 11cd 103f
00000100: 954f 1e3f 44cb 83be d78c 3a3e 27ce 06be
00000110: 2d6b 05bf be2d 1b3f 24f7 22bf 2cc0 353f
00000120: 15b2 0ebf 0c35 303f fa71 c83e 937e 83bd
00000130: bb84 133f 3f36 cbbe 3217 c23e 3637 babe
00000140: eadb 3ebf 47bf 303f 986f db3e 1e3e ccbe
00000150: 07b4 cebe ebef 943e fd1d f4be 8044 803e
00000160: 50e5 25bf 1940 f73e 3a35 9e3e 505f 9ebe
00000170: ed5f ff3e 3f92 31be 573e 03bf 6166 313f
00000180: c535 733d 1c75 9dbe 396c 2c3e 1241 e6be
00000190: 8f54 8e3e 0c17 1cbf ac04 5c3e 96dc a8be
000001a0: 2505 863e 0af9 aebe 1399 30bf 2ab4 693f
000001b0: 95d1 3abf b524 743f 54f2 23bf de82 543f
000001c0: 2195 993e efb2 e5be 7f6a 973e 376b f4bd
000001d0: 7841 6b3e fa50 a7bd abd6 24bf c6d9 3d3f
000001e0: 2dba aa3e 1bea d2bd 8782 963e 4fc6 efbe
000001f0: c52d efbe 2d32 4c3e 635a bb3e f5b1 143d
00000200: 666a ddbe 8dd7 093f d22d 1dbf 90ff ed3e
00000210: 2465 39bf 8607 303f 83e9 1f3f 2e98 a9be
00000220: fa42 febe ef1f 213f 24ba d33e 0055 d8be
00000230: 66ea c23e 8938 2abe 0403 c73e 30a9 10be
00000240: 350a 9e3e 2fa0 13bf c361 383e a442 cfbe
00000250: 61e0 f3be 63e2 b63e e288 383f cb65 39bf
00000260: 408f 0c3e f696 92be ee1a da3e 6888 86be
00000270: a5ac c93e 6a66 92be 5863 79bf c8be 433f
00000280: 2384 e93e 059d 5fbe b45b d83e f7ba 36be
00000290: c0c3 753e 0cbd f9bd 761b a6be 7252 f23e
000002a0: b6b7 01bf c54d 993e 32ad 9a3e a400 acbe
000002b0: 23f3 6e3f c3bd 5abf f907 bb3e f28f afbe
000002c0: 3def 98be abe5 da3d 1886 9a3e 9208 aabe
000002d0: 57d1 623e 3edf 9ebe 0fdf b83d 6afa 97be
000002e0: 9fef e13e 7f7b d8be 6135 c83e e03c cbbe
000002f0: 82fe 0dbf 5a61 283f 9dc6 1d3e de83 d6be
00000300: 5242 9e3e 8c9f b8be 16c6 f6be c479 1a3f
00000310: 5fd2 db3e c3ff 85be e9d8 b23e 49be adbe
00000320: 0c89 133e 14d0 fabd 523f f5be be53 dd3e
00000330: 6e40 a4be 3acf 063f 6220 0bbf e98a 2a3f
00000340: b378 09bd 4a53 b1be 6c19 11bf 49fa 663f
00000350: 12ab 3a3f a283 fbbe 518e 40bf 1fbd 2a3f
00000360: 073a e93d f72f afbe 82e1 f3be 035f e83e
00000370: 41e0 23bf 679a 5b3f 1367 de3e cdad ccbe
00000380: a96f a43e 45a0 c0be 123e 1cbf d4c4 463f
00000390: b2f9 ff3e 12fc 26bf 285e a33e d05a 73be
000003a0: 66a3 15bf 0c4a 5f3e be4e ec3e 4d48 1cbf
000003b0: 7dca d63e 4fb0 b6be 2d9e bdbe 3a39 c03e
000003c0: 4fe2 1ebf acd0 243f 467a 20bf 14f7 f53e
000003d0: aff9 b53e d4d9 053c 3eb1 71bf 16b1 3e3f
000003e0: 2bbc 5c3e 4a9d 50be 9040 943e 7851 55be
000003f0: fda5 a93d afa0 143b e05b 8f3e 7113 08be

StatefulPartitionedCall/model_2/predictions/BiasAdd/ReadVariableOp:0 f4 [2]
0.19573133 -0.19573128
00000000: cb6d 483e c86d 48be

StatefulPartitionedCall/model_2/dense_1/MatMul/ReadVariableOp:0 f4 [30, 128]
-0.6271064 0.22620578 -0.09575545 0.39996436 -0.46035668 -0.35328594 0.10397074 -0.6151784
-0.68186367 0.52681917 0.24742576 -0.45768365 0.19579208 -0.27636892 0.16808617 -0.32966024
-0.1748615 0.47299165 0.11311694 0.48385453 -0.6827577 0.47135872 -0.85002923 0.3486237
-0.34208044 -0.27464145 0.49080887 -0.34038785 -0.7506501 -0.099884875 0.4061362 -0.33756283
0.5157485 0.17845587 -0.4185618 -0.35261384 -0.14328365 0.1867907 -0.07789844 -0.24751544
-0.66676176 0.30952594 -0.34062424 -0.3381604 -0.24361603 0.558743 0.19631368 -0.22536635
0.5589579 -0.1022918 0.16122793 -0.08393516 0.5503176 -0.6793043 -0.25021657 0.26396847
-0.036359034 0.3586383 0.11763358 -0.008393603 0.5461231 0.4339491 -0.41956988 0.2829353
-0.7532676 -0.3386071 -0.37835422 0.21504398 -0.5219366 -0.16359319 0.63114643 0.25539416
0.150961 0.2348823 -0.41360164 -0.16974373 0.18531959 0.24837196 0.33333966 0.29101524
0.18667409 0.28882644 0.124131694 -0.80466557 -0.6841446 0.124007285 0.5124009 -0.12749974
-0.39200354 -0.077686876 0.31772923 0.40872946 0.16686127 0.4021031 -0.1208675 0.11854499
0.098345794 -0.5290175 0.42157966 0.08796344 0.47062114 -0.7463223 -0.33427587 0.16101353
0.47211912 0.08395894 0.027401134 -0.21815632 0.4534348 -0.839493 0.0408733 0.7028574
0.48179188 -0.28590629 -0.01666553 0.06642056 -0.57479894 0.09631237 -0.1380391 -0.71763724
-0.7665096 -0.71039903 0.25010043 -0.29238823 -0.007972576 0.29847315 0.15856495 0.5462547
-0.11904143 -0.07293613 -0.29886314 -0.02363981 -0.5447485 0.23815978 0.37343708 -0.3060681
-0.49130708 0.19813426 0.018135006 -0.15956092 0.03941066 0.17378464 0.39415228 -0.44967198
-0.38711998 0.014569139 -0.03294494 0.28935698 -0.27616924 0.34236187 -0.12774111 0.38429636
-0.1356813 -0.30983272 0.2900624 -0.4092565 -0.37773013 -0.19016694 0.1964871 -0.3508783
-0.28306332 0.26794112 -0.16899478 -0.6118038 -0.3113655 0.4692674 -0.087194026 0.15784319
-0.17632316 0.5649717 -0.3425222 -0.34211734 -0.5062633 0.21477818 0.08062845 -0.19719459
-0.020915154 0.40092543 0.09605387 0.121284366 -0.21188731 -0.63866633 0.48886114 -0.040531717
0.29628515 0.29201087 0.3100358 -0.18091162 0.2749317 -0.15789385 -0.3009395 0.48133665
-0.28445318 -0.36292326 -0.35038337 0.19933859 -0.35342214 0.33465597 0.027444372 0.21831703
-0.1750788 0.24746555 -0.36624977 0.32262328 0.38273102 -0.05949094 0.35061428 0.2014287
0.19280653 0.22689258 0.3595269 -0.25314155 -0.36163685 0.27030244 -0.011761304 0.29782942
-0.43012652 0.45746914 0.3870634 0.39759335 -0.022107884 0.26295778 -0.39393622 0.16179523
0.06512401 -0.58132505 -0.03516935 0.14371428 0.33952224 -0.18483075 -0.15782645 -0.17930616
0.454454 -0.29523614 -0.11353204 -0.1841258 0.21384837 -0.1870621 0.47992957 -0.18891534
0.04488413 -0.3397129 -0.10321306 0.08845183 -0.2899513 -0.13302404 0.24093738 -0.17440186
-0.10355237 -0.2134644 0.22180188 -0.23822804 0.41890916 0.36638018 0.044245996 0.2769796
00000000: 0c8a 20bf 7da2 673e 6f1b c4bd 21c8 cc3e
00000010: dfb3 ebbe e5e1 b4be 9dee d43d 557c 1dbf
00000020: 9e8e 2ebf 9fdd 063f 2e5d 7d3e 8355 eabe
00000030: b87d 483e 3a80 8dbe c81e 2c3e 3ac9 a8be
00000040: e50e 33be f62b f23e dba9 e73d c8bb f73e
00000050: 35c9 2ebf ee55 f13e 849b 59bf ce7e b23e
00000060: 2b25 afbe ce9d 8cbe 4d4b fb3e 5147 aebe
00000070: 9b2a 40bf 7190 ccbd 16f1 cf3e 09d5 acbe
00000080: 1808 043f 23bd 363e bb4d d6be cd89 b4be
00000090: f3b8 12be 1046 3f3e 3889 9fbd b074 7dbe
000000a0: e6b0 2abf 2f7a 9e3e 4d66 aebe 5c23 adbe
000000b0: 7b76 79be c809 0f3f 7406 493e 70c6 66be
000000c0: dd17 0f3f 5d7e d1bd ef18 253e 32e6 abbd
000000d0: 9de1 0c3f e3e6 2dbf 631c 80be e026 873e
000000e0: 36ed 14bd 709f b73e e0e9 f03d 5385 09bc
000000f0: b9ce 0b3f 942e de3e ddd1 d6be e5dc 903e
00000100: 25d6 40bf e95d adbe a5b7 c1be 7d34 5c3e
00000110: a39d 05bf f984 27be d092 213f 06c3 823e
00000120: 8595 1a3e fc84 703e 98c3 d3be 4dd1 2dbe
00000130: 6bc4 3d3e 3855 7e3e 7fab aa3e f3ff 943e
00000140: 7e27 3f3e 0fe1 933e c238 fe3d 90fe 4dbf
00000150: 1a24 2fbf 88f7 fd3d b52c 033f 4b8f 02be
00000160: b0b4 c8be 4c1a 9fbd 68ad a23e fd44 d13e
00000170: aedd 2a3e 75e0 cd3e 6189 f7bd b7c7 f23d
00000180: 8569 c93d b16d 07bf 4ad9 d73e 2d26 b43d
00000190: 41f5 f03e fa0e 3fbf 3526 abbe bbe0 243e
000001a0: 99b9 f13e aaf2 ab3d 5878 e03c 5f64 5fbe
000001b0: 9b28 e83e 03e9 56bf c36a 273d 76ee 333f
000001c0: 6dad f63e 4f62 92be 2686 88bc 8107 883d
000001d0: 0626 13bf 6b3f c53d 1f5a 0dbe 13b7 37bf
000001e0: f939 44bf b6dc 35bf 2a0d 803e e9b3 95be
000001f0: 689f 02bc 79d1 983e da5e 223e 59d7 0b3f
00000200: fecb f3bd 8a5f 95bd 9704 99be 46a8 c1bc
00000210: a374 0bbf 28e0 733e 2533 bf3e f5b4 9cbe
00000220: 9a8c fbbe b5e3 4a3e dd8f 943c f063 23be
00000230: 126d 213d 9af4 313e 54ce c93e 683b e6be
00000240: 9734 c6be 66b3 6e3c 46f1 06bd 9926 943e
00000250: 0e66 8dbe 0e4a af3e 91ce 02be 7ec2 c43e
00000260: 0af0 0abe 65a2 9ebe 0f83 943e 118a d1be
00000270: d865 c1be 1fbb 42be ea33 493e 52a6 b3be
00000280: aded 90be 942f 893e f80c 2dbe 2d9f 1cbf
00000290: 4c6b 9fbe d143 f03e c892 b2bd a5a1 213e
000002a0: 0f8e 34be fca1 103f 125f afbe 012a afbe
000002b0: 799a 01bf d0ee 5b3e 8720 a53d 61ed 49be
000002c0: 4256 abbc 1946 cd3e e4b7 c43d f063 f83d
000002d0: fdf8 58be a37f 23bf 024c fa3e 9604 26bd
000002e0: b0b2 973e 7382 953e 03bd 9e3e e540 39be
000002f0: d9c3 8c3e edae 21be be14 9abe c271 f63e
00000300: d9a3 91be 14d1 b9be 7365 b3be 6a1f 4c3e
00000310: bff3 b4be 0758 ab3e 05d3 e03c 808e 5f3e
00000320: db47 33be 9c67 7d3e 1785 bbbe e12e a53e
00000330: 52f5 c33e c6ac 73bd b783 b33e 5343 4e3e
00000340: 136f 453e 8756 683e e913 b83e c59b 81be
00000350: 7728 b9be 1565 8a3e 7cb2 40bc 197d 983e
00000360: 8b39 dcbe 6539 ea3e 2d2d c63e 5b91 cb3e
00000370: 981b b5bc 67a2 863e 02b2 c9be a6ad 253e
00000380: bd5f 853d b8d1 14bf bd0d 10bd d629 133e
00000390: dcd5 ad3e 4644 3dbe 429d 21be 099c 37be
000003a0: 32ae e83e 3129 97be 7c83 e8bd 798b 3cbe
000003b0: 11fb 5a3e 358d 3fbe 54b9 f53e 0673 41be
000003c0: 6cd8 373d d9ee adbe 5e61 d3bd 3c26 b53d
000003d0: 7f74 94be 7437 08be 4ab8 763e 6796 32be
000003e0: 4413 d4bd 6996 5abe 0820 633e 0df2 73be
000003f0: 437b d63e 2f96 bb3e 4a3b 353d 45d0 8d3e

StatefulPartitionedCall/model_2/dense_1/BiasAdd/ReadVariableOp:0 f4 [128]
-0.12735137 0.053761873 -0.15470378 0.043378815 -0.15694746 -0.16672279 -0.029936692 -0.08417166
-0.12746233 0.029980037 -0.222996 -0.08585692 -0.108433016 -0.035021055 -0.080142766 -0.17571141
-0.16602002 0.05070062 -0.2078634 0.16437384 -0.13503934 0.12811323 -0.114177406 -0.014617197
-0.1638763 -0.15976392 0.09330705 -0.0819984 -0.11932814 -0.15212151 0.022368098 -0.12824523
-0.0960846 0.0005331533 -0.108738184 -0.15784009 -0.17667945 0.08740834 -0.14317916 -0.10858172
-0.18116753 0.13959569 -0.12337278 -0.098542236 -0.18104821 0.023576468 -0.118420966 -0.19169208
0.017785054 -0.0046329764 -0.1258802 -0.028070008 0.025281347 -0.17019065 -0.1761521 -0.22024007
-0.03334663 0.0804008 -0.09138151 -0.26614514 0.03134695 0.05992613 -0.08690206 0.12634204
-0.12604795 -0.14795423 -0.13816254 -0.1534744 -0.09928497 -0.10519751 0.028519038 -0.065085806
-0.08462213 -0.014224432 -0.09440556 -0.17531274 0.0010918174 -0.041042402 0.14091265 -0.20168889
-0.08057946 -0.061526034 -0.030998629 -0.08724632 -0.09326377 -0.06185216 -0.19558565 -0.045529567
-0.07670116 0.116823174 0.01760234 0.12192861 -0.062752634 0.047762025 -0.20614387 -0.07292052
-0.028350715 -0.12465446 -0.1019457 0.10406636 0.047476504 -0.11426181 -0.10439681 -0.18662451
0.13063237 -0.23511547 -0.090996325 -0.15634887 0.12377954 -0.11717498 -0.16776665 -0.020736586
-0.030059265 -0.1500804 -0.120283335 -0.10581829 -0.13317902 -0.11197582 -0.091892734 -0.099593334
-0.13986729 -0.1370248 0.028280642 -0.20389393 -0.0039955573 0.0699853 -0.070559725 0.05783736
00000000: 6668 02be 6935 5c3d ab6a 1ebe fcad 313d
00000010: d6b6 20be 61b9 2abe cb3d f5bc 3162 acbd
00000020: 7c85 02be b298 f53c 1059 64be c1d5 afbd
00000030: 2112 debd 3d72 0fbd e421 a4bd b1ed 33be
00000040: 2701 2abe 74ab 4f3d 25da 54be 9e51 283e
00000050: c147 0abe 1d30 033e d8d5 e9bd f87c 6fbc
00000060: 30cf 27be 2799 23be c417 bf3d c7ee a7bd
00000070: 5062 f4bd bec5 1bbe 4d3d b73c b852 03be
00000080: 01c8 c4bd 50c3 0b3a 20b2 debd d5a0 21be
00000090: 75eb 34be 2503 b33d 8f9d 12be 1860 debd
000000a0: fb83 39be 2cf2 0e3e deaa fcbd 83d0 c9bd
000000b0: b464 39be 7023 c13c b186 f2bd ee4a 44be
000000c0: f6b1 913c 39d0 97bb bde6 00be 13f3 e5bc
000000d0: d41a cf3c 7546 2ebe 3761 34be 9d86 61be
000000e0: 7a96 08bd 2da9 a43d 3b26 bbbd 2d44 88be
000000f0: a965 003d 1a75 753d b5f9 b1bd cf5f 013e
00000100: b712 01be 5081 17be 7b7a 0dbe 6528 1dbe
00000110: eb55 cbbd cb71 d7bd c2a0 e93c b54b 85bd
00000120: 5e4e adbd 980d 69bc b457 c1bd 2f85 33be
00000130: 501b 8f3a 141c 28bd 684b 103e 8887 4ebe
00000140: d806 a5bd b902 7cbd d6f0 fdbc 33ae b2bd
00000150: 1301 bfbd b158 7dbd 9b47 48be 367d 3abd
00000160: 7f15 9dbd fd40 ef3d c832 903c b5b5 f93d
00000170: 7484 80bd 1da2 433d 6117 53be 5b57 95bd
00000180: c23f e8bc d64a ffbd e8c8 d0bd be20 d53d
00000190: b976 423d 1902 eabd ffcd d5bd 7f1a 3fbe
000001a0: 7ec4 053e 1cc2 70be 485c babd eb19 20be
000001b0: 2180 fd3d 70f9 efbd 05cb 2bbe c6df a9bc
000001c0: d93e f6bc adae 19be 1c57 f6bd 42b7 d8bd
000001d0: 1560 08be 9453 e5bd 4232 bcbd 97f7 cbbd
000001e0: 5f39 0fbe 3b50 0cbe ceac e73c 92c9 50be
000001f0: 2aed 82bb 7454 8f3d 9e81 90bd dee6 6c3d
