nnv/onnx/safeNLP/medical/perturbations_0.onnx (onnx, 18443 bytes, 4 tensors)

StatefulPartitionedCall/model_47/predictions/MatMul/ReadVariableOp:0 f4 [128, 2]
000000 4e cc 4c be 4c 80 d2 3e 84 0b 61 3e 59 57 52 be
       -0.19999811 0.41113508 0.21977049 -0.20541133
000010 af 08 dc be 38 94 87 3e 45 a2 da 3e 79 a7 9b be
       -0.42975375 0.2648027 0.42701927 -0.3040121
000020 23 58 a6 be f5 7f fb 3e ca cc 93 be b0 63 f3 3e
       -0.32489118 0.4912106 -0.2886718 0.47536993
000030 86 ce a8 3e 96 10 12 be a0 14 47 be 38 e4 d4 3e
       0.32970065 -0.1426414 -0.19441462 0.41580367
000040 fd 41 43 be 38 45 dd 3e f9 0d 57 3d 4a 7d cd be
       -0.19068141 0.43216872 0.05250356 -0.4013465
000050 37 e8 d5 be 25 04 0c 3f 75 6a e8 be 6a 93 d4 3e
       -0.41778728 0.54693824 -0.4539372 0.41518718
000060 67 d1 f0 3e c6 f5 b4 be f5 9a c8 3e f8 8f 02 bf
       0.4703476 -0.3534376 0.39180723 -0.5100093
000070 4a 99 f5 be 62 eb bb 3e 5f 1e c2 be 5d 3d 76 3e
       -0.47968513 0.3670302 -0.37913796 0.24046846
000080 eb 5f 27 bf 8f 17 08 3f 39 20 90 3e cf df 8d be
       -0.65380734 0.5316095 0.28149584 -0.27709815
000090 6f 8b 8b 3e dd b9 e1 be f0 fc 60 3e 30 38 af be
       0.27254817 -0.44087115 0.21971488 -0.34222555
0000a0 c3 ee cb be e7 58 8a 3e 03 28 bb 3e 10 93 e6 bc
       -0.39830598 0.27020952 0.36553964 -0.028146297
0000b0 85 62 85 be 85 7f cf 3e 6f 5c d7 3d 02 88 c5 be
       -0.26051727 0.40526977 0.10515677 -0.38580328
0000c0 59 93 d4 be 9f 4f 56 3e 0a 9d f4 be fa 38 e9 3e
       -0.41518667 0.2092881 -0.4777606 0.45551282
0000d0 df 2a 8e 3e 3e 2c d0 be 75 53 af be 60 b1 dd 3e
       0.27767083 -0.40658754 -0.3424336 0.4329939
0000e0 ef 6b c0 be 9a 71 c6 3e 6a f3 cd be 9b 67 11 3f
       -0.37582347 0.38758546 -0.40224773 0.56798714
0000f0 9f b6 b9 3e 34 85 e1 be 61 a7 f2 be e9 29 c2 3e
       0.3627214 -0.44046938 -0.47393325 0.379226
000100 cf be e6 3e 6e ab b7 bd 24 3b 7a 3e 7d 7c 46 be
       0.4506745 -0.089682445 0.24436623 -0.19383426
000110 c6 c4 a9 be b7 49 d5 3e 8b 7a ae be 7d 0c d4 3e
       -0.3315794 0.41657802 -0.34077868 0.41415778
000120 ba bb bb be c1 c1 fe 3e 53 cd ea 3e 19 76 06 be
       -0.36666662 0.49757197 0.45859775 -0.13130988
000130 3e ba 19 3f 43 a1 d7 be 10 9a 83 3e 25 74 77 be
       0.6004981 -0.4211522 0.25703478 -0.241654
000140 11 90 cc be f5 56 b0 3e ea f9 bd 3e 6a c8 ae be
       -0.39953664 0.34441343 0.37104732 -0.3413728
000150 93 15 02 bf 0d 67 ca 3e c0 09 de be 53 60 54 3e
       -0.5081417 0.39531747 -0.43366814 0.2073987
000160 27 c0 05 bf 86 f5 b6 3e 01 12 b6 3e 18 3c b6 be
       -0.52246326 0.35734195 0.3556061 -0.35592723
000170 0b 0a f0 3e 4b e6 12 be b0 47 6c be cc 73 d2 3e
       0.46882662 -0.14345662 -0.23074222 0.4110397
000180 f5 ac b8 3d ca 39 ad be 09 52 3c 3e ef 33 ee be
       0.09017364 -0.33833152 0.18390669 -0.46523997
000190 5b d5 2e 3e 04 a2 00 bf 35 cc c5 3e 41 53 00 bf
       0.17073576 -0.50247216 0.3863236 -0.50127035
0001a0 e2 8f 91 3e ba 83 ba be 22 28 13 be 5a ca bb 3e
       0.28430086 -0.36428624 -0.14370778 0.3667782
0001b0 88 74 9b be 70 0d 07 3f 25 c2 04 bf 9e 52 35 3f
       -0.30362344 0.5275488 -0.5185874 0.7082919
0001c0 51 ea df 3e 03 04 16 bf e9 1c cf 3e b8 9a 69 be
       0.43733457 -0.5859987 0.40451744 -0.22812927
0001d0 43 59 11 bf 7f 3f 37 3f cc 74 fd be 9f bd 17 3f
       -0.5677683 0.7158126 -0.4950317 0.59273714
0001e0 45 12 cc 3e 10 25 2c be 62 dc 72 3e fe b1 d2 be
       0.3985769 -0.16811013 0.23716882 -0.41151422
0001f0 f1 66 02 bf 89 72 77 3e fb 4d ed 3e fb e9 7a bd
       -0.50938326 0.24164785 0.46348557 -0.061258297
000200 55 9d a5 be 0f e2 db 3e ef 95 fe be 16 3a b2 3e
       -0.32346597 0.42945907 -0.49723765 0.3480994
000210 98 b3 d1 be 6d f8 be 3e 05 da 4f be d1 27 fe 3e
       -0.40957332 0.3729891 -0.20298012 0.49639753
000220 7d b7 96 be 88 b4 da 3e bc 45 22 3e 7c 7b 2b be
       -0.29436865 0.4271586 0.15846914 -0.16746324
000230 08 b0 b7 3e ec c3 13 be 2b 68 d3 3e c1 73 29 be
       0.3587649 -0.14430207 0.4129041 -0.16548063
000240 cc 29 78 3d 43 3b a8 be e3 03 97 3e da 0a 05 bf
       0.060586736 -0.32857713 0.29495153 -0.51969683
000250 bf 8f da be 9e 91 9d 3e 97 99 dc be b6 df da 3e
       -0.42687795 0.3077516 -0.4308593 0.42748803
000260 cb 53 98 3e 50 a3 e4 be de 4d c3 3e 96 76 5f be
       0.2975143 -0.44655848 0.38145345 -0.2182258
000270 81 24 db 3e 2e de a3 be 84 4e 0f bf f1 53 b3 3e
       0.42801288 -0.32005447 -0.5597918 0.3502498
000280 76 6c 10 3f 25 23 a7 be 34 3b e6 3e b0 79 52 be
       0.564155 -0.32644 0.44967043 -0.20554233
000290 2d c5 c1 3e 8b 52 85 be 50 c8 55 be 16 1b b7 3e
       0.37845746 -0.26039538 -0.20877194 0.35762852
0002a0 10 e3 f3 be 65 c1 89 3e 62 75 dc 3e cd c8 ed be
       -0.47634172 0.2690536 0.43058306 -0.4644226
0002b0 2f bd c8 3e 74 52 a0 be 09 1c f7 3e 0e a4 eb be
       0.39206836 -0.31312907 0.48263577 -0.460236
0002c0 eb b0 e9 be 40 7b 87 3e a9 0b e2 3e 13 8e f1 be
       -0.4564279 0.2646122 0.4414952 -0.47178707
0002d0 d2 39 b4 3e 5d b0 e1 be 40 b6 59 3e df 9d d6 be
       0.35200363 -0.44079867 0.21260929 -0.4191732
0002e0 0b 6f 02 3f 0e 6a fb be 24 f8 8e 3e 98 ff 91 be
       0.5095069 -0.4910435 0.2792369 -0.28515315
0002f0 43 91 ba bc 95 dd 00 3e 64 f0 17 3e ab 98 d3 be
       -0.022774344 0.12584527 0.14837795 -0.41327414
000300 7b ca 58 3e 65 c2 86 be 5d 3f 96 be cf 6c d4 3e
       0.2117099 -0.26320186 -0.29345217 0.41489264
000310 16 f8 d9 3e 7b 25 84 be a6 9e d3 3e fe 83 ce be
       0.42572087 -0.25809845 0.41331977 -0.40335077
000320 97 ab 79 3e a2 8a 63 be b9 98 e0 be 14 ad c8 3e
       0.24381863 -0.22220853 -0.43866518 0.39194548
000330 b4 3a 70 be 6b 7b e1 3e a9 ab ec be 5f c0 15 3f
       -0.23459893 0.44039473 -0.46224716 0.5849666
000340 24 92 43 3d a1 f4 da be 91 ef c2 3e 1f 6f 39 bd
       0.047746792 -0.42764762 0.380734 -0.04527199
000350 18 2d d8 3e 79 b4 3c be 66 12 f0 be f8 6f c4 3e
       0.42221904 -0.1842822 -0.46889037 0.38366675
000360 1d 99 00 3e 2f 2e b5 be 0c c5 9e be 9b 42 93 3e
       0.12558408 -0.35386798 -0.3100971 0.28761753
000370 23 90 b7 3e e3 37 10 be 6e db 8b 3e 3a 44 74 be
       0.35852155 -0.14083819 0.2731585 -0.23854151
000380 45 0f 87 3e ef 3f a3 be 4c a1 88 be fb ae dd 3e
       0.26378837 -0.31884715 -0.2668556 0.43297562
000390 a2 50 84 3e 00 4f d2 be 57 37 d0 3e 8c 86 a6 be
       0.25842768 -0.41075897 0.4066722 -0.32524526
0003a0 4c a4 12 bf c2 4d 53 3e 56 53 85 3e 65 95 d1 be
       -0.5728195 0.20635131 0.26040143 -0.4093429
0003b0 cc b8 02 3f 7f 57 e5 be 22 96 90 be 2f 31 93 3e
       0.5106323 -0.44793317 -0.28239542 0.28748462
0003c0 06 a9 d4 be b9 85 e0 3e bc eb c4 be 0f dc 73 3e
       -0.41535205 0.43852022 -0.384611 0.23814414
0003d0 fa c2 c3 3e b4 a6 99 bc 08 5a f0 be bc 59 8a 3e
       0.38234693 -0.018756248 -0.46943688 0.27021587
0003e0 49 6c ce 3e d8 5c c8 be 32 9b a6 3e dc 06 7a be
       0.4031699 -0.39133334 0.3254028 -0.24416679
0003f0 54 34 ad 3e 92 a1 81 be a4 ea 96 3e db 30 17 be
       0.33828986 -0.2531858 0.29475892 -0.1476473

StatefulPartitionedCall/model_47/predictions/BiasAdd/ReadVariableOp:0 f4 [2]
000000 82 35 bf 3b 90 35 bf bb
       0.005835236 -0.0058352426

StatefulPartitionedCall/model_47/dense_1/MatMul/ReadVariableOp:0 f4 [30, 128]
000000 73 2e 03 bf 8c 6e c6 3e 0f 77 97 bb ec 44 da 3e
       -0.5124275 0.38756216 -0.004622347 0.42630708
000010 ec 16 06 bf eb 91 3f bf 2c 50 c2 3e 26 19 3d bf
       -0.52378726 -0.7483203 0.3795179 -0.738665
000020 f5 5a 3a bf 25 03 06 3f f0 44 80 3d db 19 c6 be
       -0.7279504 0.5234855 0.06263149 -0.386916
000030 63 ac d7 3d 5c 9b a1 3d 68 81 df be 68 66 e3 bb
       0.10530927 0.078909606 -0.43653417 -0.006939698
000040 73 6d 7e be 47 93 c3 3e 35 06 d3 3d 00 92 ea 3e
       -0.24846439 0.381983 0.10303918 0.45814514
000050 4d da f0 be 8e 38 06 3f f1 77 ed be da 0f 02 3f
       -0.4704155 0.52430046 -0.4638057 0.5080544
000060 f7 8a 16 be 0b 04 c4 be c8 c4 cb 3e 21 eb 1e bf
       -0.14701448 -0.38284335 0.3979857 -0.6207753
000070 79 eb a7 be 01 6b 82 be b7 05 89 3e a0 fe b0 be
       -0.3279684 -0.25472263 0.26762173 -0.34569263
000080 a9 e8 6d 3e 76 82 b7 3e 0c a9 41 bf af fe 3f be
       0.23233284 0.3584172 -0.7564857 -0.18749498
000090 98 11 27 be 16 ff ef 3e 64 23 27 bd a1 d1 54 3d
       -0.16315305 0.46874303 -0.040805236 0.05195773
0000a0 c7 e8 16 be 94 b8 d9 3e 52 a3 11 bf be 73 fc be
       -0.14737235 0.42523634 -0.5688983 -0.49307054
0000b0 1e 44 fa bd 87 de e2 3e 97 97 fb 3e 73 ee 8a bb
       -0.122200236 0.443104 0.4913909 -0.004239851
0000c0 61 12 00 3f 0b c5 68 3e 8c ac 05 3e 42 b6 7b 3d
       0.50028044 0.22731416 0.13054103 0.06145311
0000d0 ca c9 e1 3e 01 b0 25 bf e8 49 af be a5 01 1c 3e
       0.44099265 -0.64721686 -0.34236073 0.15235002
0000e0 10 b7 2b 3e e7 b8 93 3e 97 74 20 bf c8 b6 bb bc
       0.16769052 0.28852007 -0.626779 -0.022914305
0000f0 c6 d3 f8 3e 94 fd de 3e 90 fb 34 bf 5e 18 04 3f
       0.4859907 0.4355284 -0.70696354 0.5159968
000100 a6 ad 01 bf d5 5b cd bd fb 85 cc be 07 4c 3c bf
       -0.5065559 -0.10027281 -0.3994597 -0.7355351
000110 c2 ee 12 bf fb cf 92 bd 28 dc f2 3e 2f 21 f6 3e
       -0.57395566 -0.071685754 0.4743359 0.48072192
000120 ad 93 a6 3e 7b f1 58 3e 6d 7e 05 bf f4 26 2c bf
       0.32534543 0.21185867 -0.52146035 -0.6724694
000130 63 8a 6f 3e 03 5b 89 3e fa 96 d3 3e 85 f6 db be
       0.23392634 0.2682725 0.41326123 -0.42961517
000140 4e 6a b1 3e 19 9f de 3e 41 c3 5a 3e 2c 67 3a bf
       0.34651417 0.43480757 0.21363546 -0.7281368
000150 b2 40 34 bf 46 eb 35 3e ce 6f c4 3e 83 a6 71 3c
       -0.7041122 0.17765531 0.3836655 0.014749172
000160 ae c9 f7 be 68 2d 78 3e b7 67 98 3e cc e7 c7 3e
       -0.48396057 0.24236071 0.29766628 0.39044034
000170 4e d4 5b 3e ac 47 de 3e 72 0e b6 3d 18 17 93 3e
       0.21467707 0.43414056 0.08889474 0.28728557
000180 03 7e a9 3e e9 4c 3d bf d9 2a 06 3e 57 90 8a 3e
       0.33103952 -0.7394548 0.13102283 0.27063248
000190 2e 6e ee 3e 8e 3a 02 bf 9d 2c ef be de 11 ef be
       0.46568435 -0.508706 -0.46713725 -0.4669332
0001a0 a5 9a 03 3f 22 2c db 3d 17 03 d5 3d 92 29 79 3b
       0.51407844 0.10701777 0.1040098 0.0038019163
0001b0 c3 4f f4 3e 83 09 13 bf 4a 47 db 3d 2a 1a b2 3e
       0.47717103 -0.5743639 0.10706957 0.34785587
0001c0 1a b3 f0 3e b2 f2 f3 be fd f1 d5 bd 9c bb db 3d
       0.47011644 -0.476461 -0.10446546 0.10729143
0001d0 13 db 4e bf dc a0 04 3e 5e 84 c1 bc df 53 00 bf
       -0.8080303 0.12951988 -0.023622688 -0.5012798
0001e0 89 d0 f7 be e5 f3 1d bf 59 c4 e3 3e 8a d0 02 be
       -0.48401287 -0.6170028 0.4448574 -0.12774864
0001f0 5d 3e 6e 3c e2 18 de 3e 3d 1a 96 3e 27 5d ce 3e
       0.014541236 0.4337836 0.29316893 0.40305445
000200 9d ad 4d 3e d3 da c1 be c1 f4 5e bc 20 60 1f be
       0.2008576 -0.37862262 -0.013608159 -0.15564013
000210 7c b2 1b 3e f4 6b a3 3e ad 91 83 3d 7a d2 ba 3e
       0.15204805 0.319183 0.0642427 0.36488706
000220 b9 1c 8e 3e d7 08 61 3d b7 c5 69 3e d2 c5 12 3e
       0.2775629 0.05494007 0.22829328 0.14333275
000230 41 4e f3 be 3b 05 b8 be 9e 3a dd 3c b1 e7 7d bc
       -0.4752064 -0.3594149 0.02700549 -0.015497134
000240 2a 05 8f 3e c6 a5 a1 bd ec a0 d1 be 05 6d 55 bc
       0.27933627 -0.07892947 -0.40943086 -0.013026481
000250 5e 7a 85 3e 94 c9 f5 bd 0f 5d db 3d bf 49 ed 3e
       0.2606992 -0.120013386 0.10711109 0.46345326
000260 dd 5d 35 bc cd d1 35 3d 0d fe e8 3d 1c d5 bc 3e
       -0.011069742 0.044389535 0.11376581 0.3688134
000270 da b0 04 3e 4b 9a be 3e a5 c3 b1 3d fc b9 35 3e
       0.12958089 0.3722709 0.08679894 0.17746729
000280 21 c5 e4 be 9c 45 e8 3d 05 96 90 3e 52 5d 65 3c
       -0.44681647 0.11341402 0.28239456 0.0139993
000290 bd 56 0b 3e f7 ae 15 3e fc 52 a4 be cf 41 d1 3d
       0.13607307 0.14617525 -0.32094562 0.1021763
0002a0 77 7c 33 3e 1a 8c e6 3d 28 95 c4 3e 00 24 4e 3e
       0.17527948 0.11257191 0.38395047 0.2013092
0002b0 1c 4d 76 3d 35 40 1c be 76 78 02 3f 5e 91 93 3d
       0.06013213 -0.15258868 0.5096506 0.07205461
0002c0 46 b5 4b be ae 0b e6 3d 50 3c a0 be 59 28 1d be
       -0.19893369 0.112326965 -0.31296015 -0.15347423
0002d0 8c 43 b4 be 78 c1 30 3e c1 58 a4 3e 66 87 4c be
       -0.35207784 0.17261302 0.32098964 -0.19973525
0002e0 66 41 a4 be 61 22 36 3e 50 58 f9 3e 01 bc 29 3e
       -0.32081145 0.17786552 0.4870019 0.16575624
0002f0 ef e2 6f 3d 71 da 9a be 21 4e a9 3e 8a 63 be 3e
       0.05856603 -0.30244783 0.3306742 0.37185317
000300 cb 1d bd 3d 61 13 59 3d 1a bf 2f 3e 58 15 89 3e
       0.09234198 0.052996997 0.17162743 0.26774096
000310 23 af 58 3e e1 4e bb bd 2d 90 a2 bd f2 87 85 be
       0.2116056 -0.09145904 -0.079376556 -0.2608028
000320 bd 1c f3 be 3f e4 4b 3e df 5e 2b 3e e2 80 6b 3e
       -0.47482863 0.19911288 0.16735409 0.22998384
000330 8a 05 a6 3d db d1 d0 be 66 88 91 3e 94 58 a5 3d
       0.08106525 -0.40785107 0.28424376 0.080735356
000340 ed 7d 9d 3e 87 12 9a 3e 20 c4 80 be 85 07 4c 3e
       0.30760136 0.3009226 -0.25149632 0.19924743
000350 32 00 ba 3e a5 06 bb 3e d7 e9 b6 3e c7 68 ba be
       0.36328274 0.36528507 0.3572528 -0.36408064
000360 2f ac 8a 3d ba 87 3a 3e e2 28 a5 3e 01 01 13 3e
       0.06771123 0.18215838 0.32257754 0.14355852
000370 3d e0 0d 3f e7 08 85 3d 4d c1 93 bd c6 90 74 be
       0.55420285 0.064958386 -0.072146036 -0.23883352
000380 84 21 d1 bd 51 fe a3 3e 9a 45 04 bf 6a ff af 3d
       -0.10211471 0.32029966 -0.51668704 0.08593638
000390 45 ab 3d be 25 3b d2 3d a3 ae 53 3e 37 02 e3 3e
       -0.18522365 0.10265187 0.20672087 0.44337627
0003a0 a8 c2 6f 3e 9b b8 da bd 44 be f4 be b5 3a 94 bc
       0.23414099 -0.10679742 -0.4780141 -0.0180944
0003b0 f1 10 26 be ea 3d 10 3e b8 2e a5 3e e4 2f c1 be
       -0.162174 0.14086118 0.32262206 -0.3773185
0003c0 34 85 ab be c6 18 3d 3e e8 7f cc be 9f 6d 22 bf
       -0.33500063 0.18466482 -0.39941335 -0.6344852
0003d0 df 4e b7 3e a3 b4 f7 be 59 0b 9f be 50 dd ed 3d
       0.3580236 -0.48380002 -0.31063345 0.11614478
0003e0 ec ec 9d 3d 41 13 9f 3e f4 81 25 be 0e bb a2 3d
       0.07711205 0.31069377 -0.16162854 0.07945834
0003f0 6e 10 40 be bf 9e f0 3d e6 48 ba be 36 66 e2 bd
       -0.18756267 0.117490284 -0.36383742 -0.110546514

StatefulPartitionedCall/model_47/dense_1/BiasAdd/ReadVariableOp:0 f4 [128]
000000 93 46 aa 3d fa aa b4 3d 5d ff e2 bd 6e 97 b7 3d
       0.08314242 0.08821674 -0.11083863 0.0896443
000010 9b e2 3f 3c 4d 55 84 3d 60 2c d7 3c ff d1 71 3d
       0.011711742 0.06461582 0.026266277 0.05903816
000020 d3 d6 93 3d e8 0e b3 3d 52 81 3f bd 70 e4 90 3c
       0.07218709 0.087430775 -0.04675419 0.017687052
000030 21 02 2d 3c 90 63 74 3b ef ea 97 bd 34 c2 7d bd
       0.01055959 0.003729079 -0.07417857 -0.061952785
000040 24 8a fe bc ce 89 b1 3d 2c bd 9a bc 2c 19 d6 3d
       -0.03107173 0.08668862 -0.018889032 0.1045402
000050 15 43 c8 3d 81 22 e5 3d bc e2 7e 3d c8 ad 4f 3d
       0.0977842 0.11188222 0.06222795 0.05070284
000060 77 49 1c 3d 9a ca 6a bc 3e 89 80 3d a4 39 4a 3d
       0.038156 -0.014330531 0.06276177 0.049371377
000070 bf b7 66 3d a6 c5 41 bc 40 79 a0 3c 9f 09 f6 bc
       0.056327578 -0.011826908 0.019589067 -0.030033885
000080 50 1b 06 3d ff 5d 79 3d e2 3e 77 3d 3e cd 4f 3d
       0.03274089 0.060880657 0.060362704 0.050732844
000090 53 a3 44 bd 62 0e 99 3d 66 9f a1 bd 3d 99 9d bc
       -0.04800732 0.074734464 -0.07891731 -0.019238109
0000a0 be b7 5b bd e4 1c 9c 3d b4 53 11 3d c2 9e 46 3d
       -0.053642027 0.07622698 0.035480216 0.048491247
0000b0 f8 0a f1 bc fd 2d 92 3d f5 fc 7f 3d b2 c7 5e bd
       -0.029424176 0.07137678 0.062497098 -0.054389663
0000c0 cc 90 d6 3d b8 a8 0f 3c 7a e1 dc 3c 07 b5 ea bb
       0.104768366 0.008768253 0.026962984 -0.0071626934
0000d0 e2 03 a9 3d 76 08 a7 3d e5 1f ea bc 06 6e 81 bd
       0.08252694 0.08155911 -0.028579662 -0.063198134
0000e0 03 0b da bc 90 7a 31 3d 2c 3d 50 bc 0e 16 7a bd
       -0.026616579 0.043329775 -0.012709897 -0.06105619
0000f0 67 0f a9 3d a5 e9 93 3d bf 27 17 3d ee 8d 66 3d
       0.08254891 0.072222985 0.03690314 0.0562877
000100 2f 1e a4 3d 88 2c 88 bc db 3c ee 3c 0e 25 77 3d
       0.080135696 -0.016622797 0.029081753 0.060338072
000110 e0 d0 97 3d 88 cc 4f bd 83 cd aa 3d 85 4c b1 3d
       0.074128866 -0.050732166 0.083399795 0.08657173
000120 c0 ad 6a 3d ce 51 3b 3c ef 0f 87 3d 91 46 0b 3c
       0.057294607 0.011433078 0.06594836 0.008500711
000130 58 85 84 3c 5b db 1d 3d 44 37 a0 3d c4 62 28 3c
       0.016176865 0.03853927 0.07823041 0.010277454
000140 40 ff 93 3b 0d 73 2f 3d fe 88 13 3d 9c f6 b3 3d
       0.004516512 0.04283433 0.036019318 0.087872714
000150 c7 ff 77 3d 1c 43 99 ba df 08 05 3d 42 76 df bc
       0.060546663 -0.0011692974 0.032479163 -0.02727807
000160 76 13 a7 3c 03 d9 0d 3c 14 fa 2e 3d f9 19 8f 3d
       0.020395022 0.008657697 0.04271896 0.06987376
000170 ac 47 27 bc bc 1d b8 3d 8e 51 83 bd 51 09 8b 3b
       -0.010209959 0.089900464 -0.0641204 0.004243054
000180 bd e3 6e 3d 3f 3b 30 3d b2 9b ac 3c aa c7 25 3d
       0.058322657 0.04302525 0.021070335 0.040473618
000190 e1 d1 a3 3d b9 b5 52 3d 94 c1 61 3d fc 86 fa 3a
       0.079990156 0.051442835 0.05511625 0.0019113715
0001a0 d2 64 86 3d e7 3f 5b bd 3c ad 96 bb 8c 6a d6 bd
       0.06562199 -0.05352774 -0.004598288 -0.10469541
0001b0 04 95 ac 3d c9 c6 c9 3d 52 24 7f bd c2 67 61 3d
       0.0842686 0.098523684 -0.062290497 0.05503059
0001c0 23 6a b3 3d 6e ca 0d 3d aa 9e d3 bc fe 4e 4e 3c
       0.08760478 0.03461688 -0.025832493 0.012592075
0001d0 be fa 4f 3d bd 42 c4 bc a9 ea 1e bd 73 b2 9e 3d
       0.050776236 -0.023957605 -0.038798008 0.0774888
0001e0 67 14 92 3d 6a 16 7f 3d 84 80 c1 3d 6e 2f 6d bc
       0.07132798 0.062277235 0.094483405 -0.01447664
0001f0 35 56 51 bd 81 17 a3 3d bb 6e 84 3d ee 85 b1 3d
       -0.051107604 0.079634674 0.06466433 0.08668123
