nnv/onnx/mnist/fnn4.onnx (onnx, 399799 bytes, 8 tensors)

weight_0 f4 [100, 784]
000000 12 67 f1 bb fb 8b 19 bc 6c 90 4b 3c 88 82 c6 bb
       -0.0073670233 -0.009371753 0.01242457 -0.006058041
000010 ab 35 d0 bc 55 3c 68 bb 9a 4e 2c bd c0 19 17 3d
       -0.025416216 -0.0035436351 -0.042067148 0.03688979
000020 af 51 dd ba c8 99 f8 3c 6d d2 7d bc ec 4c 0b 3d
       -0.0016885306 0.030346766 -0.015492064 0.034008905
000030 51 0c 7f bc 36 a9 13 bd 4e 1a 15 3d 21 73 74 3c
       -0.015566901 -0.036050044 0.03640204 0.014920027
000040 e5 e7 34 3b 4b ac 01 bd 6f ff 80 bc b8 12 13 bd
       0.002760404 -0.031658452 -0.0157468 -0.035906523
000050 06 d6 d3 3c de 6e 06 bd ba 18 23 3b f1 9b 78 bb
       0.02585889 -0.032820575 0.0024886564 -0.0037934745
000060 f4 bb 66 3c fe d8 1c 3d 7a f0 df 3c 2f 89 c9 bc
       0.014082897 0.038292877 0.027336348 -0.024601547
000070 da 33 c2 39 65 72 e4 bc ef e6 94 bc 51 84 ae bb
       0.00037041196 -0.027886579 -0.018176524 -0.005325832
000080 91 ee 6b bc 12 c0 f3 3c 7a 4f 16 3c 15 d9 2a bd
       -0.01440014 0.029754672 0.009174222 -0.04171093
000090 5b af 26 3d ad cd 77 bc cb 23 fc bc 25 b0 04 bd
       0.040694576 -0.0151247205 -0.030778786 -0.032394547
0000a0 da 37 82 bb 92 db 04 3d 61 c3 5a bc bc 95 f6 39
       -0.003973943 0.03243596 -0.013352246 0.00047032337
0000b0 44 02 c1 bc 04 dc 13 3d 51 51 51 3c af 03 56 3c
       -0.02356065 0.036098495 0.012775735 0.013062402
0000c0 51 0b 4c 3c 2b e1 33 3c 06 ce a0 bc d9 c4 0f 3b
       0.01245387 0.010978977 -0.01962949 0.0021937399
0000d0 ed 95 79 bc 5e 1d 07 3b c9 7a b9 bc 90 e8 be 3c
       -0.015233499 0.002061687 -0.022641556 0.023304254
0000e0 3b 9b b2 ba 76 7d df 3c 28 01 1f 3d 42 82 d7 bb
       -0.0013626585 0.027281504 0.038819462 -0.0065768072
0000f0 88 05 2b bb 3a d3 2a bd a4 20 91 bb b3 0d 76 bc
       -0.0026095826 -0.041705348 -0.00442894 -0.015017915
000100 32 0f 22 bd 03 11 e1 bb 87 bd 0b 3d 70 be 0e 3d
       -0.039565273 -0.006868483 0.034116294 0.034849584
000110 98 41 53 bc 16 da 78 3c 16 08 8a 3a 67 a2 10 3d
       -0.012894057 0.0151887145 0.0010530974 0.03531113
000120 94 0c c2 bc a5 dc d8 3c a4 bf 1f 3d 3c f1 be 3c
       -0.023687638 0.026472399 0.039001122 0.023308389
000130 d7 be fb bb 13 20 28 3d 89 44 ce bc ea 9a ba 3c
       -0.007682662 0.041046213 -0.025179164 0.022778947
000140 b3 ab 76 3b de 9c 8c 3c 84 c7 c1 3b e3 8c 49 bc
       0.0037638962 0.017164644 0.0059136767 -0.012301656
000150 30 e1 15 bd 2c 16 a7 3c eb fd e8 bb 1c 3e 2b bc
       -0.03659171 0.020396315 -0.0071103475 -0.01045182
000160 e2 83 9c 3c 45 40 51 3c 6d bc 0b bd 9e 1e 06 3d
       0.019105855 0.012771671 -0.034115244 0.032744043
000170 72 01 0f bd 44 b6 04 bb bc a1 bb bc 63 d3 29 bc
       -0.034913488 -0.002025024 -0.02290427 -0.01036534
000180 00 5f ab 3c 07 be 30 bd 3d 6c 18 bd 3b a5 a7 3c
       0.020919323 -0.043149974 -0.0372126 0.02046453
000190 bc ca 90 bc af 1b d0 3c 8f 3f a3 bc 61 df ea bc
       -0.017674796 0.025403826 -0.019927768 -0.028670968
0001a0 b7 a2 0e 3c aa 1f 70 3b 01 27 84 3c 7f b8 9f 3a
       0.008705786 0.0036639967 0.01613188 0.0012185721
0001b0 1f 2a e2 3c f8 d2 f9 bc f8 6c a6 bc 64 9b 2a bd
       0.027607976 -0.030496106 -0.020315632 -0.0416521
0001c0 b9 4f f9 bc e7 b6 ed bc 84 66 af bb bd 99 1e 3b
       -0.030433523 -0.029017879 -0.005352797 0.0024200522
0001d0 02 00 dd bc a2 3d 1a 3b 68 9a 32 bd ed 2c f9 bc
       -0.026977543 0.0023535271 -0.043604285 -0.03041693
0001e0 42 7f a9 bc 39 85 6c bd 03 b9 ef bc df dc 8b bd
       -0.020690564 -0.05774424 -0.029263025 -0.06829237
0001f0 ec 1b 61 bd 68 2e 16 3d e0 23 1a 3d 69 4f 5b 3d
       -0.05495827 0.03666535 0.03763187 0.05354253
000200 58 c7 7a 3c f1 16 b9 bc 75 06 02 bc bd f9 c5 ba
       0.015306316 -0.022593947 -0.00793611 -0.0015104335
000210 1c 15 d5 bc 3f 8f 0a 3d fc 23 04 bd ad 49 18 bd
       -0.026011042 0.033828016 -0.03226088 -0.037179638
000220 08 e0 20 3c da 0f 22 3d 3b a9 1c 3d ff 37 36 3c
       0.009819038 0.0395659 0.03824733 0.011121749
000230 f9 3b dc bc 60 15 10 3d 5e 7b c0 3c 04 90 ec bc
       -0.026884066 0.035176635 0.023496326 -0.028877266
000240 15 58 8e bc 2d a1 be 3c 7e 97 ef bc 83 35 2a 3b
       -0.017375985 0.023270214 -0.029247042 0.0025971837
000250 eb c3 e2 bb 49 1d 95 bd 40 c4 16 bd e3 d0 b3 bd
       -0.006920328 -0.07280976 -0.036808252 -0.08780076
000260 12 74 bb bd 21 e7 a6 3c 7b a6 5a 3b aa 7a b0 3c
       -0.09152998 0.020373883 0.003336339 0.021542866
000270 e0 a0 91 3d 6e d8 c5 bc 2a 48 97 bd be f8 05 bd
       0.071107626 -0.024151053 -0.07386811 -0.032707922
000280 24 23 2c 3c 7b 0e 92 b9 5a d9 7c 3c 7b 40 cd 3c
       0.010506425 -0.0002785808 0.01543268 0.02505516
000290 a5 ed 83 bb d7 ff 17 bd ab 1e 29 3d 43 c5 21 bd
       -0.004026132 -0.037109222 0.041289013 -0.039494764
0002a0 d8 ad 1b 3c 34 d7 b9 3c 1e 2b 6b 3b 42 a1 23 3d
       0.009501897 0.022685625 0.0035883854 0.03994871
0002b0 46 36 dc 3b d7 30 56 3c 18 40 0e bd 8a 3f 05 bd
       0.006720337 0.013073168 -0.034729093 -0.0325313
0002c0 90 29 04 bc f1 43 4e bd bb 75 4b bd 97 7a 35 bd
       -0.00806655 -0.050357763 -0.049672823 -0.044306364
0002d0 f0 f1 52 bc f9 ff 5d 3c e4 5d 88 3c 01 ea b4 3d
       -0.012875065 0.013549798 0.016646333 0.08833695
0002e0 f9 bb 75 3d 54 e4 20 bb cf c8 9a bd ac 34 8d bd
       0.059993718 -0.0024550157 -0.075578324 -0.06894812
0002f0 9b f9 15 bd 89 d4 b5 bc e1 77 6a 3a 2c 7b 01 3c
       -0.036614995 -0.022196071 0.0008944255 0.007902902
000300 ac 55 d3 bb 5e be 45 bc 90 fb 31 bc c6 dd a9 3c
       -0.006449422 -0.012069313 -0.0108632 0.020735633
000310 0f 44 bb bc 49 71 db 3c af f0 7c 3c 7d 8b 09 bd
       -0.022859601 0.026787417 0.015438243 -0.033580292
000320 22 47 8d 3c 8a 15 d0 3c 53 83 e6 bc 3a 27 88 3c
       0.017245833 0.025400896 -0.028138792 0.016620267
000330 d9 8b ca bc 66 7d 0d 3c f7 08 20 bd f5 01 74 bd
       -0.024724888 0.008635854 -0.03907105 -0.05957218
000340 97 1c 52 bd a1 e2 f8 bc 2f 54 8e 3d c8 1e ba 3d
       -0.051296797 -0.030381503 0.069496505 0.09087902
000350 e4 b5 4d 3d 6d c5 fc 3c 3c 94 dd bc c6 58 74 3a
       0.050222293 0.030855859 -0.027048223 0.00093210896
000360 eb 2a 4e bd 22 1f 7f bc 2d ab 83 3b f9 1d 89 bc
       -0.0503339 -0.0155713875 0.0040182085 -0.016737925
000370 3c d9 ab bc cc ad d7 3c 6c fc 52 3c 87 92 03 bd
       -0.020977609 0.02632799 0.012877565 -0.03212216
000380 2e b2 22 bb c1 79 28 3d 02 e1 20 3d 29 b9 22 3d
       -0.0024825442 0.04113174 0.039277084 0.039727364
000390 29 8e 8d 3b 31 ee 1c bd d0 3d a5 3b 6c 0d 36 3c
       0.0043199253 -0.038313095 0.005042769 0.011111598
0003a0 65 14 13 bd 87 31 24 3d ea 5e 17 3b 44 5c 29 bd
       -0.03590812 0.040086295 0.0023097345 -0.041347757
0003b0 83 87 09 bc 8f 37 f1 3b bc 5a 7a 3d 24 9a e6 3d
       -0.008394125 0.0073613594 0.061121687 0.11259869
0003c0 f9 15 01 3c 17 06 ce bc 4c fd a3 bd 9f 1d 95 bd
       0.007878774 -0.025149388 -0.08007297 -0.072810404
0003d0 34 51 88 bc 8a c0 a5 3b 44 b4 16 bd d4 e9 e9 bc
       -0.016640283 0.005058353 -0.03679301 -0.02855388
0003e0 be 42 f5 3c 1b 42 01 3d 78 11 b5 3c c2 6b 25 bd
       0.029939052 0.031557184 0.022103056 -0.04038597
0003f0 98 3d c2 bc 68 5f 28 bd d8 82 b1 bc 33 99 f6 bc
       -0.02371101 -0.04110661 -0.021668836 -0.030102348

bias_0 f4 [100]
000000 d5 68 93 3c f9 e2 85 3d 4a 72 82 3c 8a 0f 37 3e
       0.017994324 0.06537432 0.015923638 0.17877021
000010 2f e7 52 3e 93 96 ab 3d 78 e6 4a 3c 79 34 b0 3d
       0.20596002 0.08378329 0.01238405 0.08603758
000020 c8 dc 4d bc 20 f9 7d ba cf b1 dd 3d c8 fc 90 3d
       -0.012564845 -0.00096883066 0.1082493 0.07079464
000030 00 9f 98 3d cc 51 3c 3d 12 71 74 3d f9 17 8f bd
       0.07452202 0.045976445 0.059678145 -0.06986994
000040 ef bd 6a 3d 0e 5e da bd 70 62 28 3a af 7d c9 bc
       0.05731004 -0.10662471 0.000642336 -0.024596063
000050 83 af 32 3d 8e ee 03 3e ca 04 1b bd f2 37 02 3d
       0.043624412 0.1288397 -0.037846364 0.031791635
000060 15 cb 8f 3d 5d b0 18 be 33 ed 15 3e d1 1f f9 bc
       0.07021157 -0.14911027 0.14641266 -0.030410679
000070 ca 69 ef bd 08 96 ec bd ae aa a0 bc dc a4 c5 3d
       -0.116900995 -0.11552054 -0.019612636 0.09650585
000080 2c 9c 93 bd b6 fa 39 3e ce 2b 25 3e 48 a4 06 3e
       -0.07207522 0.18162045 0.16129991 0.13148606
000090 ce 00 2f bd 5a ac c5 bd be 8d 82 bc 4f a4 86 3e
       -0.042725377 -0.09652014 -0.015936729 0.26297233
0000a0 16 27 fb 3b a8 cb 33 be 1b 59 fe 3c 87 81 4d 3c
       0.0076645715 -0.17558157 0.031048348 0.012543089
0000b0 af 02 5b 3d a3 06 46 3d 90 a8 8f 3b 0c 40 4d 3d
       0.053469356 0.048346173 0.004384108 0.050109908
0000c0 f2 45 b9 bc f3 28 bc 3c 0f f3 f3 bb 24 71 f7 3d
       -0.02261636 0.022968745 -0.0074447463 0.12082127
0000d0 f5 1b 22 3d 4b 5b 35 3d 82 6b da ba 70 29 3e bb
       0.039577443 0.044276517 -0.001666412 -0.0029016398
0000e0 38 6c 10 bc 35 8b ba 3d a9 12 fd 3c 66 bf 82 bb
       -0.008814864 0.09108583 0.030892687 -0.0039901016
0000f0 57 3e b0 bd fc cf 82 3d 00 ea 97 bc c1 96 9d 3e
       -0.086056404 0.06387326 -0.018544197 0.3077908
000100 27 65 4e bd f2 6a 09 be 2c af 18 3d 53 53 a2 bc
       -0.050389435 -0.13419703 0.037276432 -0.019815123
000110 39 cd 2a bd 89 b8 30 3e d3 df 4f 3d 16 93 8d 3d
       -0.04169962 0.17257895 0.050750565 0.0691282
000120 07 ec 98 3d 41 41 a5 3c 9c 4e c9 3d ce 31 7a bc
       0.07466894 0.020172717 0.09829447 -0.015270663
000130 05 19 5a bc 52 fa 15 3e b7 66 e6 3b 8a d5 c5 3d
       -0.013311629 0.14646271 0.0070312875 0.0965987
000140 82 ef 42 3e aa ba ef 3d ba ae 69 bc 1e a3 db 3d
       0.19036677 0.11705525 -0.014262849 0.107244715
000150 f2 a6 18 bd ca 8b 9a bd 5a 22 1c bc de 9a 4f 3d
       -0.037268586 -0.07546194 -0.009529674 0.050684802
000160 8c 30 40 bd cf 21 59 3d a0 68 7a bd 09 ed 9c bd
       -0.046921298 0.053010758 -0.061134934 -0.07662398
000170 f3 7f 61 3d 65 e7 84 3c e1 95 ce 3d d4 a7 c0 3d
       0.055053663 0.016223619 0.10087181 0.09407011
000180 7b 05 f2 bc eb 6d 4a bd 05 5f d7 3d 8b c0 6a 3d
       -0.029543629 -0.049421232 0.105161704 0.05731253

weight_2 f4 [100, 100]
000000 56 4e 10 3b 5c 76 0f 3d d1 16 e1 bd a5 5a 95 3d
       0.0022019348 0.035024986 -0.1099068 0.0729268
000010 06 d0 6f ba ea 77 ef bc 91 36 d6 3c 7f 91 75 bd
       -0.00091481244 -0.029231984 0.026149066 -0.05995321
000020 72 ee de 3d a6 10 bf bd 55 39 94 bd 6e 81 6c 3d
       0.108853236 -0.09329347 -0.07237498 0.05774062
000030 ab ba ce 3d b2 e1 ca bd d6 53 e4 3d ee c8 81 bd
       0.10094198 -0.09906329 0.11148803 -0.063371524
000040 ec 82 ed 3d 23 3e b7 bd a5 7d b5 bd 8a cb 00 3c
       0.11597237 -0.089473985 -0.088618554 0.0078610275
000050 7a 5c 43 3e e3 3e a7 bd 1c 57 cb 3d 8a 7c a2 3c
       0.19078246 -0.081662916 0.09928724 0.019834775
000060 b5 23 0d be 09 8c 1e 3e e9 ef cd 3d 52 0a fa bd
       -0.13783152 0.15483107 0.10055525 -0.12209
000070 1b 1c c3 bd a0 26 27 3d 71 3d 94 bd 55 c3 d1 3d
       -0.09526845 0.04080832 -0.072382815 0.10242335
000080 c4 0b be 3b f1 8c 57 bc 07 9a d4 3d 61 72 06 be
       0.0057997424 -0.013156162 0.10380941 -0.1312957
000090 c2 0b 82 bd 91 a4 19 bc d2 88 b5 3d a9 92 00 3d
       -0.06349899 -0.009377615 0.08863987 0.031389866
0000a0 df 7e 1d 3e 78 77 df 3a 96 31 8a 3d 99 1e a1 3c
       0.15380429 0.0017049154 0.06747739 0.01966791
0000b0 7c 47 07 3e d6 20 81 3d cb d7 b6 bd 9a 7a ec bc
       0.13210863 0.06305091 -0.08927878 -0.028867055
0000c0 c9 ca 1f 3d 09 2a 71 bd f3 5e 13 3e 01 a3 e2 3d
       0.03901175 -0.05887798 0.14391689 0.11066247
0000d0 ad 97 dc bd 81 f6 8c bc c2 65 c0 3d 3d 0d 5c bd
       -0.10771117 -0.017207386 0.09394409 -0.053723563
0000e0 f9 d4 19 3d 95 f8 b3 bd 0d 1e 5a bd dc f0 88 bd
       0.037556622 -0.08787648 -0.053251315 -0.06686565
0000f0 3b 31 2b be 62 13 2e be e6 78 3c bd 56 6e 95 3d
       -0.16717999 -0.16999581 -0.046013735 0.072964355
000100 b9 b8 65 bd 96 26 20 3d 5f ba 21 bd 17 35 77 bd
       -0.05608437 0.0390993 -0.039484378 -0.060353365
000110 be 96 e5 3d 75 34 4a 3d b8 9a 2c 3e 55 17 1b 3d
       0.112103924 0.049366433 0.16855896 0.037864048
000120 31 de 97 bd 6c 4a fc 3c ed f7 49 be d4 9a d9 bd
       -0.074154265 0.030797206 -0.19723482 -0.10625234
000130 34 8a 32 3c 07 48 74 3e 07 52 ef 3c 36 8d d0 3d
       0.010897208 0.23855601 0.029213918 0.10183184
000140 0a 8c ee 3d e1 37 04 bd 41 df 47 bc c9 59 89 3d
       0.11647804 -0.032279853 -0.012199224 0.06706578
000150 41 90 21 3e 75 12 02 be 2d 46 7f 3d 64 8c 73 3c
       0.15777685 -0.12702353 0.062322784 0.014865015
000160 b4 82 1a 3d 21 f6 4a bb 6e 7a ac bd 4e a4 0d bd
       0.037722304 -0.0030969458 -0.08421789 -0.03458052
000170 98 5e be 39 5b 8f 98 3d fc 29 04 be 59 40 e3 3d
       0.00036310102 0.07449218 -0.12906641 0.11096258
000180 e6 83 9c 3d 36 60 27 3e d9 77 16 be c1 f7 01 be
       0.07642345 0.16345295 -0.14694156 -0.12692167
000190 f2 bc 6d 3d 41 ff 34 be 21 64 3b bd c3 96 07 3e
       0.05804152 -0.17675497 -0.045749787 0.13241105
0001a0 74 f2 d5 3d 18 ee 57 3d db 1f 16 3e 24 75 87 3d
       0.10446635 0.0527173 0.1466059 0.0661414
0001b0 1d 84 29 be cb 1e f8 ba 3f 81 b5 bd 2f 84 a8 bb
       -0.16554303 -0.0018930075 -0.08862542 -0.0051427106
0001c0 b8 78 7d 3c 4d fd cd 3c 12 49 0d be 3e 01 46 be
       0.015470676 0.025145197 -0.13797405 -0.19336411
0001d0 0d 6d 56 3d f4 0d 6c 3a f3 62 2b 3e 3f 36 4e 3d
       0.052350093 0.0009004765 0.16736965 0.0503447
0001e0 3a 2a 50 bd c8 8b 06 3e 21 25 c7 bd 1f 01 d5 bc
       -0.05082152 0.1313926 -0.09723879 -0.026001511
0001f0 31 2d c8 3d 2d cc 58 3d f6 ed 11 3e 90 a8 d6 bd
       0.097742446 0.052929092 0.14250931 -0.104813695
000200 58 5e 92 bd 61 e7 ae 3d 3f 3f 92 3c a3 d7 8c bd
       -0.07146901 0.08540226 0.017852424 -0.06877067
000210 1b 37 75 3d 34 98 08 be b9 cb 8a bd de 8c b3 3d
       0.059867006 -0.13339311 -0.06777138 0.08767103
000220 96 3b d9 3d 33 c3 a4 3d 14 52 36 3d dd 1d d4 3c
       0.10607068 0.08045044 0.04451187 0.025893146
000230 53 79 23 bd 63 c5 fd bd e5 1f ac bd d4 61 88 3c
       -0.039910626 -0.12391164 -0.08404521 0.01664821
000240 96 b8 9c 3c 87 07 3d bd 0d ce 03 3d e3 58 0c 3e
       0.019130986 -0.046149757 0.032178927 0.13705783
000250 93 14 59 3d 7a e3 d4 bd ce 6f 1c 3d 91 18 02 be
       0.052998137 -0.1039495 0.038192563 -0.12704684
000260 20 59 ad bd ee cb 27 be a9 7c d0 bc 57 39 93 bd
       -0.08464265 -0.16386387 -0.025450068 -0.07188671
000270 54 c3 05 be 34 bb a0 bd d8 6a 37 3c b4 f5 64 3e
       -0.13062793 -0.07848206 0.011194907 0.22359353
000280 67 97 d7 bd 28 90 cf 3c 23 ec 4c 3e 9b c7 84 3d
       -0.105269246 0.025337294 0.20011954 0.06483384
000290 da fc c9 3d 95 f5 91 3d cd 4b 45 3e 70 24 1f 3e
       0.09862681 0.07126919 0.19267197 0.15541244
0002a0 2e bc 08 3c 7c 5d 19 be 3a 90 82 3e de d7 44 bb
       0.008345647 -0.14977068 0.2550066 -0.0030035893
0002b0 19 ac 44 3d aa c4 26 bc fd de 09 3c d9 c8 26 3d
       0.048015688 -0.010178724 0.008414981 0.040718887
0002c0 c0 44 ef 3d 56 4f da bd f0 b5 36 3c 54 dc 81 3d
       0.11683035 -0.106596634 0.011151776 0.063408524
0002d0 a4 ca 90 3d 0c 22 a3 3d 95 ac 99 3d 65 b5 b8 bd
       0.07069901 0.07965478 0.075036205 -0.09018973
0002e0 64 14 d3 bc a1 12 88 bd 06 ca cc 3d f4 af 83 3c
       -0.025766559 -0.06644178 0.099994704 0.016075112
0002f0 68 7d 8e 3d 4f 2e b1 3d 35 1c 54 bd 73 15 22 3c
       0.06957513 0.08651411 -0.051784713 0.009892809
000300 f4 79 a6 3b 59 28 ad 3c 9d 1b a3 bd a4 58 32 bb
       0.005080456 0.021137403 -0.07964251 -0.0027213478
000310 89 3a f0 3c 9b f4 61 3d b7 b7 ea 3d 53 f4 4c 3d
       0.029324787 0.055164915 0.11460822 0.050037693
000320 5d 01 21 be 06 53 5a 3e 2b e8 9d bd 1e c2 89 bd
       -0.15723176 0.21320733 -0.07710298 -0.06726478
000330 53 9b bb bd e3 46 5a 3d 18 c6 02 3e 59 3f 03 bd
       -0.09160485 0.05329026 0.1277088 -0.032042835
000340 03 7a a2 3d d1 42 cc bd 4d 1e 24 3d ac 47 32 3e
       0.07933428 -0.09973682 0.04006796 0.17410153
000350 47 a8 0a 3d cd 06 1b bd 01 09 94 3d 41 7f 3b 3d
       0.033851888 -0.037848283 0.0722828 0.045775656
000360 8f d6 1f bd 6d 5a 8e 3e a0 23 1d 3d a6 db ce bd
       -0.03902298 0.27803364 0.038364053 -0.10100488
000370 e7 dc a0 3d 0c 75 5e 3d c5 13 0d be 65 8d c5 3d
       0.07854634 0.054310843 -0.13777073 0.096461095
000380 b3 bc a7 3d a5 36 09 be 7d 15 bf bd cf 34 73 3d
       0.081902884 -0.13399751 -0.093302704 0.059376534
000390 59 0f 24 3e 6a 16 1f be fe a5 2a be 79 b9 88 bd
       0.1602148 -0.15535894 -0.16664883 -0.06676001
0003a0 86 7e 75 bd 2d a2 58 3c 10 af cc 3d 7b 13 24 3e
       -0.059935115 0.0132222595 0.09994328 0.16023056
0003b0 1a a9 c2 3d fb ff ae 3c c6 d1 a6 bc 90 bc 18 bc
       0.0950491 0.021362295 -0.0203637 -0.009322301
0003c0 32 b3 02 be 5d 74 31 be 67 54 15 bd cb dd 90 ba
       -0.1276367 -0.17329545 -0.036457445 -0.0011052428
0003d0 41 a2 f0 3d 39 e2 02 be 2f 91 f1 3d cd 66 2f bd
       0.117496975 -0.1278161 0.1179527 -0.042822648
0003e0 b5 34 a0 be fb f1 9e 3d 75 ff 24 3d 72 4a 42 3e
       -0.31290212 0.07760998 0.040282685 0.18973711
0003f0 8a 33 9a 3c a7 bd 04 3e d2 52 87 bd 99 b5 81 3e
       0.018823404 0.12962972 -0.066075936 0.2533386

bias_2 f4 [100]
000000 75 22 d7 3c 91 18 8b 3d 09 59 22 3e 4b b1 a1 3d
       0.026261548 0.06791795 0.15854277 0.07895144
000010 0c af 0e 3e ab 25 76 bb 0d f3 b6 bc c4 5b dc 3c
       0.13933963 -0.0037559073 -0.022332693 0.026899226
000020 93 9c 46 3e 24 18 aa 3d bb d1 0a 3d 18 a4 f5 3c
       0.19395666 0.08305386 0.03389142 0.029985473
000030 33 1e e2 bb 23 3c 3c 3c b5 12 9d 3d e8 88 6d 3c
       -0.0069005727 0.011488947 0.07669584 0.014497973
000040 97 50 d7 3d e9 c5 0d 3e 61 34 6d 3d fd 7f 44 bd
       0.10513418 0.13845028 0.05791128 -0.04797362
000050 31 fb 61 3d 08 36 46 3c 86 bd df 3d 99 90 62 3d
       0.055171195 0.012097843 0.109248206 0.05531368
000060 fb 07 c7 3d c5 09 e3 3d 5e 59 ea 3d f8 7b 96 3d
       0.09718319 0.11085848 0.11442827 0.07347864
000070 bc e0 18 3d 65 90 8b 3d 11 32 0a 3c 65 ac 86 3c
       0.0373237 0.068146504 0.008434788 0.016439626
000080 a9 98 81 3d 1f b9 6a bb 8c 16 21 3d 0b a0 0e 3e
       0.06327946 -0.0035815907 0.039328143 0.13928239
000090 e8 6d a9 bb b0 2a a5 ba 79 bb eb bb 49 8f 0d 3d
       -0.0051705725 -0.0012601223 -0.0071939793 0.034560475
0000a0 90 61 4b 3e 5f 6c 18 3b 62 ce 69 bc 87 78 fa 3d
       0.19861436 0.0023257954 -0.014270397 0.1223002
0000b0 66 bd eb 3b 72 a3 05 3d 5b fd 0b 3d 4f 83 08 bd
       0.007194209 0.032626577 0.034177165 -0.03332835
0000c0 65 b2 a0 3d bb bf 0d 3e 2a 51 0d 3c 7a f5 d8 3b
       0.07846526 0.1384267 0.008625308 0.00662106
0000d0 71 5f 11 bc 38 c1 a1 3c 1d b7 c0 3d 69 12 8b 3d
       -0.008872853 0.019745454 0.09409926 0.06790621
0000e0 0d 6e da 3d ee a4 6b 3d d3 97 0d 3e 01 1a 90 3c
       0.10665522 0.057530336 0.13827448 0.017590525
0000f0 92 94 62 3d dc 13 80 bc c3 a1 ce bb 38 ca 9a 3d
       0.05531747 -0.01563447 -0.0063059046 0.075581014
000100 a1 50 28 3e cc 3f 58 3e aa 48 dc 3d d2 b2 07 bd
       0.16437007 0.21118087 0.10756047 -0.03312952
000110 d9 f3 f7 3c d5 fe 33 3d f1 e0 cc 3b 8d 16 0c ba
       0.030267643 0.0439442 0.006252401 -0.00053439365
000120 e7 0d 11 3e 5b c3 ec 3b 6a 7f 52 b9 68 87 5a 3d
       0.1416546 0.0072254366 -0.00020074626 0.05335179
000130 31 4b f3 3d e5 6b 7e 3b e9 a7 c1 3b bb f0 23 bc
       0.11879576 0.0038821634 0.005909909 -0.010006125
000140 28 9a 8a 3d 1a 2e 2a bc 91 9f 19 3d a8 b6 bb 3c
       0.06767684 -0.010386968 0.03750569 0.022914246
000150 96 e2 70 3c b8 5e 20 3c 11 46 c2 3d 84 53 54 3d
       0.01470246 0.009788208 0.0948602 0.05183746
000160 1b 95 27 ba 88 3e c8 3d 88 5c 0b 3d 60 06 c9 3d
       -0.0006392763 0.09777552 0.03402379 0.09815669
000170 3e 5c 52 3d ec f2 2e bc e2 e7 73 3e c1 80 1a bc
       0.0513575 -0.010678034 0.23818925 -0.009430111
000180 b5 bc e4 3d 7f d3 dd 3c c6 12 56 3d 1c c7 94 3d
       0.111688055 0.027078388 0.052263997 0.072645396

weight_4 f4 [100, 100]
000000 c7 f4 25 bd 8c d0 99 3c 23 4b 4a be 64 95 83 3d
       -0.04051664 0.0187762 -0.19755225 0.064249784
000010 85 7a 19 be 05 05 c1 3d 78 49 eb 3d f6 fb a9 3d
       -0.14988144 0.094247855 0.114886224 0.08300011
000020 5b 0c 28 3e 02 8b 32 3e 9c ff 45 3d 70 fb c6 bb
       0.16410963 0.1743584 0.04833947 -0.006072454
000030 74 a3 16 3d f7 24 ed 3d 43 a9 eb bd eb 2c ec 3d
       0.036776975 0.11579316 -0.115068935 0.11532005
000040 6b 1b c9 3d 16 5a 7e 3d 25 8f b6 3c 04 6f 01 bd
       0.09819683 0.06209763 0.022285054 -0.031600013
000050 01 6f f8 bd d0 b1 83 3e 72 22 8f bd e4 2f 1a be
       -0.12130547 0.25721598 -0.06988992 -0.15057331
000060 b6 0e de bd 4a da 91 bd e0 31 fe bc 0e 09 51 bc
       -0.1084265 -0.071217135 -0.031029642 -0.012758506
000070 cf 8c 6f 3d 51 b3 c0 3d 4e 91 66 ba af 3a 49 3d
       0.058483895 0.09409202 -0.0008795456 0.04912823
000080 6a 1b ec 3c 5a 9b 32 bd 2e d2 f6 3a 96 6c 59 be
       0.028821666 -0.043605186 0.0018830949 -0.21232828
000090 f2 30 c3 bd d2 59 ba bd 99 10 a4 bc 3b 2a 3f 3e
       -0.0953082 -0.09099163 -0.020027446 0.18668453
0000a0 56 33 ab 3d 0e 01 3e bd 91 d8 78 3c f3 08 da bd
       0.08359401 -0.046387725 0.015188352 -0.10646238
0000b0 73 df c2 bd 73 23 2a bd 55 85 2c 3e 20 62 86 bd
       -0.09515276 -0.041537713 0.16847737 -0.065616846
0000c0 76 0b 16 be 36 bb 2e bb 43 66 1f 3d 47 63 81 3e
       -0.1465281 -0.002666188 0.038915884 0.25271055
0000d0 25 99 c5 bd 36 3c 23 bd a6 1a b7 bd a3 eb ef 3d
       -0.096483506 -0.039852343 -0.0894063 0.11714866
0000e0 d3 6f fe 3d d8 77 04 bd d8 e9 04 be f4 18 a5 3d
       0.124236725 -0.032340854 -0.1297983 0.080614
0000f0 68 ef 82 3d a8 f8 fa 3a 33 3e ca bd a8 99 b6 bb
       0.06393319 0.0019147592 -0.09875145 -0.0055725165
000100 11 e7 3b bd a4 bd d4 bd 9e 25 9c 3e 01 bf f8 3d
       -0.04587466 -0.103877336 0.3049745 0.12145806
000110 3e d0 ca 3b 79 02 76 3d 37 f0 d0 3d e2 30 51 3c
       0.006189375 0.06006095 0.10202067 0.012768002
000120 ea 2a 7d 3d d3 fa 39 3c 79 ba 64 3d f5 ee db 3d
       0.061808504 0.011351305 0.055841897 0.10738937
000130 6f cb bd bc 78 58 b5 bd c4 96 98 3c ab 22 f0 bd
       -0.023168294 -0.08854765 0.018626578 -0.117253624
000140 00 33 01 be 27 f7 18 3e 9f 12 e1 bc fe 37 36 3d
       -0.12617111 0.14938031 -0.0274747 0.044486992
000150 2d d8 15 bd 5c a2 98 3d 54 a2 5c 3c d3 ae 4d bc
       -0.036583114 0.074528426 0.013466436 -0.012553888
000160 e8 21 8a bd 07 56 8d bc be 77 fe 3d 62 92 03 3e
       -0.06744748 -0.017252935 0.12425183 0.1284881
000170 37 cc ca 3d f1 e2 49 bc c8 b8 63 bd 8a f9 fe 3d
       0.09902232 -0.012322173 -0.055596143 0.124499395
000180 9d 8b 97 bd 19 66 61 bd 8f c3 88 ba 4c cd 27 be
       -0.07399676 -0.05502901 -0.0010434258 -0.16386908
000190 10 eb 92 3d db 0e 04 bc e1 9f 7d 3d 70 86 b1 bc
       0.07173741 -0.008060182 0.06192005 -0.02167055
0001a0 a8 cf 8a bd e5 78 49 bc f9 2a 01 3d a3 8f c0 bd
       -0.067778885 -0.01229689 0.031535123 -0.094023965
0001b0 e0 1e bd bd 27 45 24 bd eb 7a bd bd d0 ab ef bc
       -0.092344046 -0.04010501 -0.0925196 -0.029256731
0001c0 a5 fc 42 3d 06 63 71 bd e2 eb ac bb c4 2c 80 3d
       0.04760422 -0.058932327 -0.005277143 0.06258538
0001d0 a8 ca c2 3d 1d 56 db 3d f2 3b 8e bd e8 c9 b2 3d
       0.0951131 0.10709784 -0.069450274 0.08729917
0001e0 99 1f c1 bd 38 b6 e4 bd b9 fa bc bd 6e 19 15 bd
       -0.09429855 -0.11167568 -0.09227509 -0.036401205
0001f0 84 52 d9 bd e6 63 91 3b d1 21 a4 3d b5 6d c2 3b
       -0.10611442 0.0044369576 0.080142625 0.0059334883
000200 73 54 c4 3d 78 c9 aa 3d 8c 88 da 3d df 69 a2 3d
       0.0958642 0.08339208 0.106705755 0.079303496
000210 e2 8d b5 bd 16 2a 27 3d 2c 7d ea bc 73 cb cf bd
       -0.088649526 0.04081162 -0.02862414 -0.10146227
000220 85 c1 c4 bd 67 5b 9a 3d b9 80 19 bd b1 d7 8b bd
       -0.096072234 0.07536965 -0.037476275 -0.06828249
000230 90 4e 5a 3d d7 fe d9 3d d0 e6 c2 bd fb 41 fc 3c
       0.05329758 0.1064431 -0.0951668 0.03079318
000240 dc d2 8b bd bc e8 94 3d ed 47 a4 3d 8a 28 82 bd
       -0.068273276 0.07270953 0.08021531 -0.063553885
000250 26 65 a2 ba 2c 81 92 3d 32 c0 a4 bc 81 3f a0 bd
       -0.0012389764 0.07153544 -0.020111177 -0.078246124
000260 9a 61 c1 ba 35 a6 19 bd 4b ab 7d 3c b7 9a bf 3c
       -0.0014753819 -0.037512023 0.015482734 0.023389203
000270 f8 48 0f bd 0c a6 08 3d ca 5c df bd 61 a2 6d 3d
       -0.034981698 0.03336148 -0.1090637 0.058016185
000280 c7 c2 e6 bd 86 64 5c bd 5d 62 ab bc d1 ce 84 3c
       -0.112676196 -0.053806804 -0.020920927 0.016211899
000290 22 0f e8 3c eb ad 92 bd 71 58 4a 3d 58 0b 18 3d
       0.028327528 -0.071620785 0.04940075 0.037120193
0002a0 96 2a 0a 3d 59 94 af bd 73 a3 84 bb 54 b2 0c 3c
       0.03373202 -0.08573217 -0.004047805 0.008587439
0002b0 4f 0a 8c bc 5f 66 fe bc c2 da 7c 3d 0d 4f bb 3d
       -0.01709476 -0.031054674 0.06173206 0.09145937
0002c0 f0 cb 08 bd 70 82 9d 3d c7 b2 ac 3d 0a 9b 43 3d
       -0.033397615 0.076908946 0.084325366 0.04775528
0002d0 2a 8f c5 3d 5c 03 ea 3d 16 1d 67 bc b9 65 e0 3d
       0.09646447 0.11426422 -0.014106056 0.10956902
0002e0 0d 3f 5d 3c 56 24 67 3d ec 8a ca bd d1 8f 9e bd
       0.013503802 0.056431137 -0.098897785 -0.077422746
0002f0 d8 97 64 3d 62 12 47 bc 1d 83 ea bc ce 79 a1 3d
       0.055808872 -0.012150379 -0.028626973 0.078845605
000300 74 1d e2 bd 00 de ba bc b0 28 9f bd b8 c2 e4 3d
       -0.11040774 -0.022810936 -0.077714324 0.11169952
000310 e2 76 b0 3d 8d 3f e0 bd 50 19 bb bb 4b dd 6a 3b
       0.08616425 -0.10949621 -0.0057098046 0.0035837467
000320 68 da f7 bc 50 a2 dd 3d f5 e8 7e 3d af 72 4b 3d
       -0.030255511 0.10821974 0.062233884 0.049669918
000330 47 b7 06 be 31 8e 31 bd 45 dd 87 bd e2 57 0b 3e
       -0.13155852 -0.043348495 -0.06634001 0.13607743
000340 98 23 fe bc 74 1a 02 3e 64 c3 01 be e1 c5 65 bd
       -0.031022832 0.12705404 -0.12672192 -0.056096915
000350 d9 5c 73 3d 60 fc a8 3d 70 53 5e 3d 89 c0 c8 bd
       0.05941472 0.08251262 0.05427879 -0.09802348
000360 17 8c 9f bd 2a e3 7a bd 99 73 31 3e fb bc c5 3c
       -0.07790392 -0.061251797 0.17329253 0.024137964
000370 99 eb 3a 3e 83 2c 15 3e a6 68 e0 3d 85 37 15 be
       0.18253936 0.14567761 0.1095746 -0.1457196
000380 4a db 06 be 84 0a 09 be 98 48 d6 3c cc a0 d1 bd
       -0.1316959 -0.13382918 0.026157662 -0.10235748
000390 b3 87 3e 3e 28 47 6d bd c6 07 d6 bd 92 6e 2c 3d
       0.18606453 -0.057929188 -0.104507014 0.042097636
0003a0 fc ae eb 3d f8 8d 7e 3e 66 bb 97 3c a2 fd ac 3d
       0.11507985 0.24858844 0.018521976 0.08446814
0003b0 2b ec ef bd 01 d0 d4 3b 4f 26 63 bc ee 48 b0 3d
       -0.11714967 0.0064945226 -0.013864114 0.0860766
0003c0 69 51 69 bd c1 5d 75 3c 64 17 82 3e e3 96 35 3d
       -0.056962404 0.014975966 0.2540847 0.04433335
0003d0 b6 e4 17 bd 1a d7 10 be 10 a2 27 bd 58 ec a8 3d
       -0.03708335 -0.14144555 -0.04092604 0.08248204
0003e0 9f b4 95 bd 11 8d 0f 3e 10 77 1f 3d d5 b7 a0 3d
       -0.07309841 0.14018656 0.038931906 0.07847563
0003f0 4e 6c 7f bd 50 9c c5 3d 51 7b 86 3d 9b 68 ca 3d
       -0.062359147 0.09648955 0.065664895 0.09883233

bias_4 f4 [100]
000000 98 f8 7c 3d 2e ab 98 3c 0a da 47 3d 89 0d 34 39
       0.061760515 0.018636312 0.048791923 0.0001717118
000010 b2 e9 a5 3d 77 8b 42 3d b3 1e d0 3d ca bb 63 3d
       0.081012145 0.047496285 0.101621054 0.05559901
000020 dd ae 16 3d 7e 22 42 b9 00 ff 83 3d 25 db cc 3c
       0.036787856 -0.00018514131 0.06445122 0.02500684
000030 4c 38 2c 3d 71 2c 6e 3d f2 c3 e1 3c 56 20 d9 3d
       0.042045876 0.05814785 0.027559254 0.10601871
000040 2d da 9e 3c e5 3e 9f bc e0 31 07 bd 87 cb 0f 3e
       0.019391144 -0.01943917 -0.03300655 0.14042483
000050 4f f2 98 3d dd d6 2f 3e f1 34 de bb 75 4c 6c 3d
       0.07468092 0.17171808 -0.0067812135 0.057690103
000060 45 7d 1b bc d0 7d 00 3c a8 f7 2c 3d a9 19 56 3c
       -0.009490316 0.007842496 0.04222837 0.013067641
000070 52 d2 ea 3c 97 16 1f 3d 6b 11 06 3d 45 ab 3d 3d
       0.028664742 0.038839903 0.032731455 0.046305913
000080 a2 6e 02 3d f0 fc 62 3c a2 4d 98 3c 9b ae 3b 3d
       0.03184379 0.01385425 0.018591706 0.045820814
000090 a3 29 be 39 61 c8 c8 3d 20 d4 18 3e 94 d3 13 3d
       0.00036270646 0.09803844 0.1492467 0.03609045
0000a0 2a 89 36 3d 11 bd 90 bb 9b 43 6e bc 69 ba bd 3c
       0.044564404 -0.0044170697 -0.014542486 0.023160176
0000b0 33 59 d5 3d d0 33 11 bb 96 23 33 3d 5e 9b b6 3a
       0.10417404 -0.0022156127 0.04373511 0.0013931801
0000c0 06 fa 9f 3d 7f 26 e5 3b 3f 82 c3 bc 9e 71 da 3d
       0.0781136 0.0069931145 -0.023865817 0.10666202
0000d0 81 bb 90 bc 2d a3 2c 3d 99 4f a3 3c f2 7d f9 3d
       -0.017667534 0.042147804 0.019935416 0.12182225
0000e0 5d 11 c3 bc 5e 0a 8f 3c 3d f1 35 bc 0a 2f e9 3d
       -0.02381199 0.017460998 -0.011104879 0.11385925
0000f0 fe 3c f3 3c 24 6a b2 3d 84 33 0e 3d b7 f3 79 3d
       0.02969217 0.08711651 0.034717098 0.06102344
000100 29 9e bc 3d 3e d7 85 3c 9b 7d 44 3d 55 0d 78 3b
       0.09209854 0.016337987 0.04797135 0.0037849743
000110 12 5a b1 bb ac 62 31 3d 6b d2 aa 3d 67 b7 66 3d
       -0.0054123485 0.04330699 0.08340915 0.05632725
000120 44 d7 50 3d 90 cc ec 3d 41 27 cc 3d 6d d5 90 3d
       0.050986543 0.11562455 0.099684246 0.07071958
000130 d6 d6 c4 3d fc d4 6f bc e1 21 06 3e b7 bf ae 3c
       0.09611289 -0.014638182 0.13098861 0.021331651
000140 5b cd a0 3d 31 60 1a 3c 1e 79 02 3d 7f d0 c8 bc
       0.078516684 0.009422348 0.031853788 -0.024513481
000150 32 fe 33 3d 1f d2 ad bc 09 9c 9a bc 36 fd 9a 3d
       0.04394359 -0.021218358 -0.018873231 0.075678274
000160 16 ee bf 3d c5 b4 0c 3d 0b 11 97 3d 05 8a ce 3a
       0.09371583 0.034352083 0.073762976 0.0015757686
000170 b2 44 d0 3c b2 ae c1 3c c1 e3 31 bb b6 4b ad 3d
       0.025423381 0.023642872 -0.0027143809 0.08461706
000180 4f 0a ba 3c 57 c5 48 3d 26 3d 03 3e ba a7 99 3d
       0.022709994 0.049016323 0.12816295 0.075026944

weight_6 f4 [10, 100]
000000 2c cb 04 3d 3e a6 a8 3d b4 8e 71 be 50 87 cd bc
       0.032420322 0.08234833 -0.23589593 -0.025088936
000010 4c a6 a9 be 15 8d d8 3c ed af 49 bd 84 cc 1d 3e
       -0.33134687 0.02643446 -0.04924004 0.15410048
000020 38 ad 73 bd 23 30 a7 3c 1f d5 90 bd de 77 90 bd
       -0.059491366 0.020408696 -0.070718996 -0.07054113
000030 87 86 06 be 3a f8 2c 3e fa 5f 12 be b8 fc 77 be
       -0.13137256 0.16891566 -0.14294425 -0.24217498
000040 5f d8 b1 bc 67 02 c9 bd e8 ee 2c 3d 54 71 c2 be
       -0.02170962 -0.09814911 0.042220026 -0.37977087
000050 25 17 bd 3d 37 8b 57 be 7e 1b bd 3e db dd 97 3d
       0.0923293 -0.210492 0.36935037 0.074153624
000060 27 e2 7d bd 68 9c b6 3d ae 02 8c be 56 47 19 3d
       -0.061983254 0.08916551 -0.27345794 0.037421547
000070 b1 41 f7 3d 18 7e 9f 3e 2b 1a e4 bc 6b 33 d0 3c
       0.120730765 0.3115089 -0.02784451 0.025415143
000080 40 92 e3 bc ab be a6 bd a5 25 8e 3d f9 e0 a8 3d
       -0.027779698 -0.08141836 0.06940774 0.08246035
000090 cd d8 c5 3d 27 6e aa bd a0 b1 7f 3e 1a a5 10 3f
       0.09660492 -0.08321791 0.24970102 0.56501925
0000a0 23 a8 57 3e a6 d3 9f 3e b9 db 64 bc d0 34 1b 3d
       0.21060233 0.31216162 -0.013968402 0.037892163
0000b0 41 51 09 bd 74 e6 fd bc f8 3f 50 be b6 32 3f bd
       -0.033524755 -0.030993678 -0.20336902 -0.04667922
0000c0 e3 a1 52 be 6b 54 20 3d ca 74 26 bd 2f a2 6e be
       -0.20569567 0.039143007 -0.040638722 -0.23304056
0000d0 5d ec 56 3e 03 0f 27 be f1 7c a2 bd e0 b2 3f be
       0.20988603 -0.1631432 -0.07933987 -0.18720579
0000e0 71 d0 88 3e 93 f0 91 3c fb c7 97 3e a8 8d 3b be
       0.26721528 0.01781491 0.2964476 -0.18315756
0000f0 9d e6 96 bc a0 1b 62 be 07 80 c3 bd 3a d5 3d be
       -0.018420512 -0.2208085 -0.09545904 -0.1853837
000100 1a 46 0a bd 63 e2 51 3e b0 69 9d bb 22 3e 66 3c
       -0.03375826 0.20496516 -0.0048038587 0.0140529
000110 8f 51 2a bd 71 a7 b5 bd f8 3a 5d be 36 28 47 bd
       -0.041581687 -0.088698275 -0.21604526 -0.048622333
000120 5c 32 cf 3b c9 99 a3 3e 8c b5 c0 be 5c b6 5a 3e
       0.006323142 0.31953266 -0.3763851 0.21358627
000130 4a cc 31 be 01 80 4f bc a1 23 3e bd 69 00 26 3d
       -0.17363086 -0.012664796 -0.046420697 0.040527735
000140 88 e9 9f be a6 aa ee bd 20 0f 83 bd e5 ac 00 be
       -0.31232858 -0.11653642 -0.06399369 -0.12565954
000150 93 27 4a 3e 27 fc f1 bb 9f 5f 5c 3e 7e 7f 24 be
       0.19741659 -0.007384795 0.21520852 -0.1606426
000160 e0 f7 48 be ed 33 2f 3e 5b 22 01 3e 1c 80 ab bc
       -0.19625807 0.17109652 0.12610762 -0.02093511
000170 8c dc 1b 3c 16 b5 04 be 06 2a cd bd fd 7d 38 3e
       0.009513032 -0.12959704 -0.10017781 0.1801681
000180 2d 6d d1 3c 98 ae 4b 3e f2 ed 8e bd 4c 91 9e 3e
       0.025564754 0.19890821 -0.06978978 0.30970228
000190 b7 c4 0d 3f b2 88 99 bd 88 c2 9d 3d 7a c7 e3 bd
       0.5537829 -0.07496776 0.077031195 -0.111220315
0001a0 0a c5 b2 bd 47 0c f2 3d 9d da 56 3e 51 7e 5d be
       -0.087289885 0.11818748 0.20981832 -0.21630217
0001b0 36 d8 9b bc a7 2f e2 3d 74 f0 e7 3c 21 b0 26 bd
       -0.019023996 0.11044245 0.0283129 -0.040695313
0001c0 2f ad 19 3d 8d bd 0a be 32 1c 5f be 6e a5 20 3e
       0.037518676 -0.1354887 -0.217881 0.15688106
0001d0 b2 7c a2 3d d7 69 90 bc ee 34 f4 bc 50 a1 ca 3e
       0.0793394 -0.017628593 -0.029810395 0.39576197
0001e0 15 9b cc 3e c8 51 6d 3e 3d d7 f5 bc 02 0a 15 3c
       0.39962068 0.23175728 -0.03000986 0.009096624
0001f0 6f 88 56 3c 3c 16 45 3d 3d 99 d0 be 95 b9 65 3d
       0.013094052 0.048116907 -0.40741912 0.056085188
000200 5e da a3 bd e2 95 32 be 14 04 14 be f2 da 60 be
       -0.080006346 -0.17439988 -0.1445468 -0.21958521
000210 d7 3d 8a be 0a 69 49 3e 49 0b 3e 3d 60 68 0c be
       -0.27000305 0.19668975 0.04639748 -0.13711691
000220 4c 14 b8 3d 74 92 84 3d 6e a7 91 be 1d 34 1d be
       0.08988246 0.06473246 -0.2844805 -0.15351911
000230 3b a4 40 be 07 43 fe bc af 8c e8 3c 5a 9e 35 be
       -0.18812649 -0.03103782 0.028387396 -0.17736188
000240 f0 61 5b bd 29 15 ca 3d c5 7b 1d be f7 30 ee 3d
       -0.053560197 0.09867317 -0.15379246 0.11630433
000250 e2 70 19 3e 69 91 97 bb c5 79 46 bb 4d 09 58 be
       0.14984468 -0.0046254885 -0.0030284983 -0.21097298
000260 e3 a6 a0 3c eb bf 79 bd 0b 67 2e 3d 82 b6 ee 3e
       0.019610828 -0.060974043 0.04257874 0.46623617
000270 f9 55 e5 3d d7 85 9a 3d df 18 72 3d 4c b1 d2 3d
       0.111980386 0.07545059 0.05910575 0.10287723
000280 27 b3 6d be d8 34 01 3f db dc 8f 3d 69 e1 ac be
       -0.23212872 0.5047126 0.07024547 -0.33765724
000290 1c 18 88 be 27 72 fb 3c 83 9c 4b be 47 9b d9 bc
       -0.26580894 0.03069408 -0.19883923 -0.0265633
0002a0 02 4e 96 bd 18 e3 ef 3e cc 9f 15 bc a1 61 c9 bd
       -0.073390976 0.46852946 -0.009132337 -0.09833074
0002b0 c8 13 62 be 10 1a ee bd 31 4d 10 3f 3a 4c 10 be
       -0.22077858 -0.11626065 0.56367785 -0.14091578
0002c0 89 91 28 3e 92 aa f4 3c 88 9d a4 bd 6a 96 ac bc
       0.16461767 0.02986649 -0.08037859 -0.021067817
0002d0 1b ca 33 3e 03 1f bc 3d f1 c3 58 3e 3a 36 b8 3d
       0.17557566 0.091856025 0.21168496 0.08994718
0002e0 66 07 82 3e 04 33 ac bc 68 95 05 bd b1 51 03 be
       0.2539627 -0.02102042 -0.032613188 -0.12824132
0002f0 1e cc 82 be ed ab 15 be 11 a8 e3 be 1e dd cb 3d
       -0.25546354 -0.14616366 -0.44464162 0.09954284
000300 f1 ee 15 ba 3f 05 36 bd 5f 77 29 3e 80 95 27 bd
       -0.0005719504 -0.044438597 0.16549443 -0.04091406
000310 b6 54 f7 bd 03 28 b3 bc 3e c6 1c be 22 77 36 3e
       -0.12076704 -0.021869665 -0.15309998 0.17818883
000320 0a b7 2b be 0d 82 92 3d 54 53 d6 3c c8 11 61 bb
       -0.16769043 0.071537115 0.02616278 -0.0034342874
000330 63 6c 49 be ea f5 25 bd 1a c2 3e be 0e ea 81 3e
       -0.19670253 -0.040517725 -0.18628731 0.25373882
000340 10 e2 90 3d e0 6f d3 3c 4b 24 95 3b 92 c0 60 3d
       0.07074368 0.025810182 0.0045514456 0.05487115
000350 35 a8 0f 3e 83 a5 81 bd bb 7e 80 be 14 9a ae be
       0.1402901 -0.06330397 -0.25096688 -0.34101927
000360 33 34 39 be 6c 5a 97 bd 60 95 c2 bd d7 45 c4 3e
       -0.18086319 -0.073902935 -0.09501147 0.38334534
000370 b8 0e 67 bd ca 71 a6 be 5e 3d d5 3d 1d be 2c 3c
       -0.05641052 -0.3250869 0.104120955 0.010543373
000380 91 1f 9b bd 99 30 c6 3d 9f 34 1a 3f a5 8d ad 3e
       -0.0757438 0.09677238 0.60236543 0.3389713
000390 19 25 21 be 9a 2c 6b bd dd fb 1e 3c be 81 96 3e
       -0.15736808 -0.057415582 0.009703604 0.2939586
0003a0 6f f6 39 3e c8 8e 37 bd 72 bd 08 3e 87 03 73 bd
       0.18160413 -0.0448139 0.13353518 -0.059329536
0003b0 39 7a a4 bd 56 35 d3 be aa 10 f3 bd 4b af 0f 3e
       -0.080311246 -0.4125163 -0.11868413 0.14031713
0003c0 b1 4b b8 3d 6f c0 8e be d0 c3 f3 3c 81 90 73 3e
       0.08998812 -0.2788119 0.029756457 0.23785593
0003d0 e4 00 a7 be 64 9d ca 3e f9 3a b1 3e bb eb 57 3d
       -0.32617867 0.39573205 0.34615305 0.052715044
0003e0 17 88 59 be e5 b6 b9 bd cf f0 7c 3d ae 14 d4 bd
       -0.2124332 -0.090680875 0.06175309 -0.10355507
0003f0 63 0b b9 be ff 34 ec bc 01 ec 04 be c3 7e a4 3d
       -0.361415 -0.028833864 -0.12980653 0.080319904

bias_6 f4 [10]
000000 5b 60 20 be 21 22 38 3e ff 62 a6 bd 61 ef ac 3d
       -0.15661757 0.17981769 -0.08124351 0.084440954
000010 7d b2 d3 bc f2 42 2b 3e 1c 61 bf bd a1 2d fe bd
       -0.025841946 0.16724756 -0.09344694 -0.12411047
000020 03 dc eb 3a ff 67 44 3d
       0.0017994646 0.04795074
