nnv/onnx/mnist/fnn5.onnx (onnx, 521616 bytes, 14 tensors)

weight_0 f4 [100, 784]
0	0x3d0f4bc9	0.034984384
1	0x3ca0e4cb	0.019640347
2	0xbcc98fd2	-0.024604712
3	0x3c60819e	0.013702778
4	0xbc11cd64	-0.008899067
5	0xbce13285	-0.02748991
6	0x3d245883	0.040123474
7	0xbcf90eaf	-0.03040251
8	0x3c68432f	0.014176174
9	0x3d2a21a8	0.041536003
10	0xbd12f054	-0.035873726
11	0x3ccfa13c	0.025345437
12	0xbc607911	-0.0137007395
13	0xbd156fd9	-0.03648362
14	0xbc54058c	-0.012940776
15	0x3d2112ce	0.039324574
16	0x3cc45040	0.023964047
17	0x3d20eb0d	0.039286662
18	0x3cf0457b	0.029330006
19	0x3cb580f5	0.022156218
20	0xbc6324b5	-0.013863732
21	0x3cf0f2d8	0.029412672
22	0x3d1c97ea	0.038230814
23	0xbd0eb957	-0.034844723
24	0x3d1a5934	0.037682727
25	0xbd1d9756	-0.038474403
26	0x3d04f775	0.032462556
27	0xbd0edee8	-0.03488055
28	0xbd1b11ea	-0.03785888
29	0xbd24c1bf	-0.040223833
30	0xbd08d0c4	-0.03340222
31	0xbc766076	-0.0150376465
32	0x3d114ea1	0.035475377
33	0x3d068967	0.03284588
34	0x3ba493cc	0.0050225016
35	0x3c9ff6e0	0.019526899
36	0x3aed9999	0.0018127441
37	0xbc7ec36f	-0.015549525
38	0xbd191c8b	-0.037380736
39	0xbcf63431	-0.030054184
40	0xbc2741da	-0.010208571
41	0x3c8a0d40	0.016852021
42	0x3b2f50eb	0.0026751112
43	0xbd0238c5	-0.03179242
44	0xbcbf1147	-0.023323668
45	0xbd07b6fd	-0.033133496
46	0xbcc4af90	-0.024009496
47	0xbcd8babd	-0.026456231
48	0xbb362df6	-0.002779839
49	0x3c374c4d	0.011187625
50	0x3ccf7273	0.025323128
51	0x3cfe3bd9	0.031034397
52	0x3d2bf5e4	0.041982546
53	0x3ba18997	0.004929732
54	0x3cf5f0fc	0.030022137
55	0x3cca01e6	0.024659108
56	0x3d055e18	0.032560438
57	0xbac43c76	-0.0014971632
58	0xbcf55dfd	-0.029952044
59	0x3c322942	0.010874094
60	0x3d279f94	0.04092367
61	0x3bf7768f	0.007551975
62	0xbcd512fd	-0.02601003
63	0xbc95c5bf	-0.01828277
64	0x3d042826	0.03226485
65	0x3d13c0e1	0.036072616
66	0xbc9b85f8	-0.01898478
67	0xbca1d861	-0.019756498
68	0xbbda1db3	-0.0066563725
69	0x3cc94e63	0.02457351
70	0x3bf46be4	0.0074591506
71	0x3ce65286	0.028115522
72	0x3ca20a0d	0.019780183
73	0xbc86d4e4	-0.016458936
74	0x3d0c5b6d	0.034266878
75	0x3c81b2a1	0.015832247
76	0x3d04c394	0.03241308
77	0x3c1fe774	0.009759773
78	0x3cf38c3c	0.029729955
79	0x3c175cc5	0.009238427
80	0xbd11de5b	-0.035612445
81	0xbd0c550e	-0.034260802
82	0xbccf2c56	-0.025289696
83	0xbc909d7f	-0.017653225
84	0xbd0b68ae	-0.034035377
85	0xbd0c01d0	-0.034181416
86	0x3cafa0de	0.021439012
87	0xbd1f7722	-0.038931973
88	0xbaf34e50	-0.0018562768
89	0xbac40d2c	-0.0014957539
90	0x3d0c3677	0.03423163
91	0x3d266cd1	0.04063112
92	0xbc500eb8	-0.012698822
93	0x3ccb5849	0.024822371
94	0x3c1d807e	0.009613154
95	0x3c86a868	0.016437724
96	0xbb47aaff	-0.0030466912
97	0x3b3bf659	0.002868077
98	0x3d5dc1c8	0.054139882
99	0x3d94421a	0.0723917
100	0x3c0ca37f	0.008583902
101	0x3c1207f4	0.008913029
102	0xbc79708f	-0.01522459
103	0xbcf6b18c	-0.030113958
104	0x3cf18af9	0.029485213
105	0x3c27dcdb	0.010245527
106	0xbc9a15f8	-0.018809304
107	0x3aa76961	0.0012772494
108	0x3c33d850	0.010976866
109	0xbd302479	-0.043003533
110	0x3bc8c01c	0.006126417
111	0x3c049d22	0.008094104
112	0xbc888fc3	-0.016670113
113	0xbd266b59	-0.04062972
114	0xbc242aa8	-0.010019936
115	0xbca5f6f3	-0.020259356
116	0xbc6489ce	-0.013948871
117	0x3c423240	0.011852801
118	0xbc6daf2f	-0.014507099
119	0xbacbb8a2	-0.0015542696
120	0x3bc4d992	0.0060073817
121	0xbd3cd7a7	-0.0461041
122	0xbcc2b0e6	-0.023765992
123	0xbd128d69	-0.03577939
124	0xbc560d53	-0.0130647
125	0x3c9f5f24	0.019454546
126	0xb914321e	-0.0001413305
127	0x3a3310d6	0.0006830817
128	0x3bc7b819	0.006094944
129	0x3d3c2aaf	0.045939144
130	0x3c118ace	0.008883191
131	0xbc45b5e1	-0.012067289
132	0x3bfe8c34	0.0077681784
133	0x3bd032dc	0.006353719
134	0x3d3347ca	0.043769635
135	0xbb2615b0	-0.0025342517
136	0xbd042f44	-0.03227164
137	0xbcf2fe67	-0.029662324
138	0x3cf6145c	0.030039005
139	0x3c629aeb	0.013830881
140	0x3c87a428	0.016557768
141	0x3c56186e	0.013067348
142	0xbd1b8808	-0.037971526
143	0x3c8b3545	0.016993174
144	0x3c54e432	0.012993859
145	0x3cdddcbe	0.027082797
146	0xbc64d1ae	-0.013966007
147	0xbc1d4e6e	-0.009601219
148	0x3c169f2c	0.009193223
149	0xbd057985	-0.032586593
150	0xbd2abc39	-0.04168341
151	0xbd551319	-0.052020166
152	0xbc689115	-0.0141947465
153	0x3cfaf884	0.03063608
154	0x3ca5ea9a	0.020253468
155	0xbc85a957	-0.0163161
156	0x3d492f1b	0.04911719
157	0x3d4796f2	0.048727937
158	0x3c3cdf41	0.011527837
159	0x3d526aea	0.051371492
160	0xbc28a314	-0.010292787
161	0x3d3ea554	0.046544388
162	0xbcea0fc1	-0.028571965
163	0x3c9fbcda	0.019499231
164	0x3c956c10	0.018240005
165	0xbd12e0b6	-0.035858832
166	0x3b7206fd	0.0036930435
167	0xbcae31d4	-0.021263994
168	0x3cfdb77d	0.030971283
169	0xbcc49ac0	-0.023999572
170	0x3d119f97	0.035552587
171	0x3cac8519	0.02105956
172	0x3c5f86d1	0.013642983
173	0xbc11273e	-0.008859454
174	0x3c9733ed	0.018457377
175	0x3bf0078a	0.0073251175
176	0xbda1721a	-0.07883091
177	0x3b4b1723	0.0030989132
178	0xbd667926	-0.05626788
179	0xbcac7fcf	-0.021057038
180	0xbd6cc849	-0.057808194
181	0xbcc5b6ee	-0.02413508
182	0xba8be215	-0.0010672236
183	0xbcf00492	-0.029299054
184	0xbd55af67	-0.05216923
185	0xbd047ebd	-0.03234743
186	0x3d37c457	0.04486498
187	0x3c82bde6	0.015959691
188	0x3ce5b5b1	0.028040739
189	0x3d4c8ead	0.049940754
190	0x3d6fb8fe	0.05852603
191	0x3c551588	0.013005622
192	0xbd72fa4b	-0.05932073
193	0x3baec304	0.0053333063
194	0x3cd9315c	0.026512794
195	0xbbdebbd6	-0.006797294
196	0xbc319e95	-0.010841032
197	0x3cb1ae66	0.021689605
198	0x3bec87e0	0.007218346
199	0x3cc92415	0.024553338
200	0xbd15c1bf	-0.036561724
201	0x3c6abf5b	0.014327849
202	0xbb3e0889	-0.0028996787
203	0x3c41fae7	0.011839605
204	0xbd68015f	-0.056641933
205	0xbd12c3c6	-0.035831235
206	0xbcfc23be	-0.030778762
207	0xbc87114e	-0.016487744
208	0xbca96c3e	-0.020681497
209	0xbcd45a63	-0.025922006
210	0xbbfc75bc	-0.0077044647
211	0xbc3856ef	-0.011251195
212	0xbd8148f5	-0.063127436
213	0x3d30c7c2	0.043159254
214	0x3d8015c5	0.06254152
215	0x3cea12a9	0.028573351
216	0x3c23b79f	0.009992509
217	0x3d87a3db	0.0662305
218	0x3d3bbd4d	0.04583483
219	0x3d616365	0.05502643
220	0xbd630674	-0.055426076
221	0xbd1c4cd1	-0.038159195
222	0xbc79abef	-0.015238746
223	0xbcd0c1cf	-0.02548304
224	0x3d1d4c07	0.038402583
225	0x3c849fdb	0.016189506
226	0xbcc73226	-0.024315905
227	0x3d247a3d	0.040155638
228	0xbccdecfc	-0.025137417
229	0xbcf63de9	-0.030058818
230	0x3c9094dc	0.017649107
231	0x3c906eac	0.017630897
232	0x3b8a3fa2	0.0042190114
233	0xbd29941e	-0.04140102
234	0xbd8c4d8d	-0.06850729
235	0x3c9c5d74	0.01908753
236	0xbb7c1d7b	-0.003846972
237	0xbc9e1331	-0.01929626
238	0xbd6ec1cd	-0.05829029
239	0xbd2b1069	-0.041763697
240	0x3c9d5a7a	0.019208182
241	0x3d161d48	0.03664902
242	0x3d1a7ab7	0.037714686
243	0x3dbc69b5	0.091998495
244	0x3d41e963	0.047341716
245	0x3d4ba26b	0.04971544
246	0x3d8a5f38	0.06756443
247	0xbb11e3ee	-0.00222611
248	0xbd5cb80f	-0.05388647
249	0xbd251346	-0.040301584
250	0xbcce9b4b	-0.025220534
251	0x3cb252c5	0.021767983
252	0xbba0464a	-0.0048911916
253	0xbc2213c6	-0.00989241
254	0x3caf94d2	0.021433268
255	0x3d112441	0.035434965

bias_0 f4 [100]
0	0x3e04ef72	0.12981966
1	0x3e0846f1	0.13308312
2	0x3c2a05a6	0.010377323
3	0xbd642eb5	-0.055708606
4	0x3db37fa5	0.08764581
5	0xbdc1682d	-0.09443698
6	0x3cc418f6	0.023937684
7	0x3bb8c73e	0.005638986
8	0x3d2443d2	0.04010374
9	0x3d92cd16	0.07168023
10	0x3cdc3681	0.026881458
11	0x3cdb24d3	0.026750958
12	0x3dedc76d	0.11610303
13	0x3da55a9a	0.080739215
14	0x3db33b5f	0.087515585
15	0xbdf82610	-0.12116635
16	0x3e23c24b	0.15992086
17	0x3a76365c	0.00093922555
18	0xbbda0972	-0.006653958
19	0xbd3b7649	-0.045767102
20	0x3d097628	0.03355995
21	0xbddd070f	-0.10792362
22	0xbce01763	-0.027354902
23	0x3d53792a	0.051629223
24	0xbdceb4f4	-0.10093108
25	0x3c273c14	0.010207195
26	0x3cb6d3c1	0.022317769
27	0x3d75a088	0.059967548
28	0xbdd43604	-0.10361865
29	0x3d3772fc	0.044787392
30	0xbd1b8c4c	-0.037975594
31	0xbdc416a4	-0.09574631
32	0xbaed61fa	-0.0018110864
33	0xbd49f79f	-0.049308416
34	0x3cf5c21b	0.029999783
35	0x3e1d4c72	0.15361193
36	0xbd73e0f4	-0.059540704
37	0xbdd2f792	-0.103011265
38	0x3a9f5068	0.00121547
39	0xbcf3a62a	-0.02974232
40	0xbde4d9bc	-0.11174342
41	0x3d18ee29	0.037336502
42	0x3d6f6cfd	0.05845355
43	0xbdd4ac1a	-0.10384388
44	0x3b849feb	0.004047384
45	0xbc8231f8	-0.015892968
46	0xbd91cf25	-0.07119588
47	0xbc08425b	-0.008316602
48	0xb81b6a64	-3.7053964e-05
49	0x3d384bb9	0.04499409
50	0xbbb37d6a	-0.005477597
51	0xbcc68e37	-0.024237735
52	0x3bdc1136	0.006715919
53	0xbdbb547f	-0.09146976
54	0x3dc9c58f	0.098521344
55	0xbcc4713f	-0.023979781
56	0x3e04f190	0.12982774
57	0x3a711c3e	0.0009197629
58	0xbc5d856e	-0.013520582
59	0xbdba4db5	-0.09096853
60	0x3dba734c	0.091040224
61	0xbc32b8a1	-0.010908277
62	0xbd0e1c18	-0.03469476
63	0x3dd892f8	0.10574907
64	0x3c403ca0	0.011733204
65	0xbbd16d46	-0.0063912002
66	0x3e02318f	0.12714218
67	0x3d9f9ee1	0.077939756
68	0x3e832d2a	0.25620395
69	0xbb2224d2	-0.0024741185
70	0xbc495ae6	-0.012289738
71	0x3d714c7b	0.058910828
72	0xbd376a57	-0.044779148
73	0xbd8eba56	-0.069691345
74	0x3d8cc03c	0.06872603
75	0x3e2aa9da	0.16666356
76	0xbdfc7f81	-0.12329007
77	0x3deb9c77	0.11504453
78	0xbcfe0fe6	-0.03101344
79	0x3cd423f6	0.025896054
80	0x3c6c7749	0.014432737
81	0x3d8eca57	0.06972187
82	0x3e01e7c2	0.12686065
83	0x3d9751da	0.07388659
84	0x3d434f04	0.047682777
85	0xbd786469	-0.060642634
86	0xbd4f5a27	-0.050623085
87	0x3d414699	0.047186468
88	0xbc9afd80	-0.018919706
89	0xbcf48f01	-0.029853346
90	0x3bbe3c91	0.00580556
91	0xbdb886dc	-0.090100974
92	0x3e3e2fe2	0.18572953
93	0xbd1ce57e	-0.0383048
94	0xbddac274	-0.1068162
95	0xbd4ebb39	-0.05047152
96	0xbdc96267	-0.09833222
97	0xbd02301c	-0.031784162
98	0xbdd75e97	-0.105160885
99	0xbb8dac43	-0.0043235137

weight_2 f4 [100, 100]
0	0x3da8fb8f	0.08251106
1	0xbd25d148	-0.04048279
2	0x3e00557b	0.12532608
3	0x3c2943a5	0.010331069
4	0x3d471a39	0.048608992
5	0xbdd9477d	-0.106093384
6	0x3d3a0676	0.045416318
7	0xbd440146	-0.047852777
8	0xbd77243d	-0.060337294
9	0x3d2eaee2	0.04264725
10	0x3d30151a	0.042988874
11	0xbbc6fb42	-0.0060724327
12	0xbe0d72dd	-0.13813348
13	0x3e0b8da3	0.13628249
14	0xbda86369	-0.08222086
15	0x3dd6bbdf	0.10485052
16	0xbdf325b7	-0.11872428
17	0x3d4b91b1	0.04969949
18	0xbdce86b3	-0.100842856
19	0x3bcab185	0.0061857128
20	0xbd085ca0	-0.03329146
21	0x3db2cd9f	0.08730625
22	0xbceda48f	-0.029009132
23	0xbddc40db	-0.10754558
24	0x3d9175e8	0.07102567
25	0xbddb336b	-0.107031666
26	0xbd86bb98	-0.065787494
27	0xbbecf44c	-0.007231271
28	0x3cd5e0c2	0.02610815
29	0x3e04d663	0.12972407
30	0x3daf6248	0.085636675
31	0x3cae1e47	0.021254672
32	0xbc8161ff	-0.015793798
33	0xbe0c1ebc	-0.13683599
34	0xbc6fa220	-0.014626056
35	0x3d18e8a3	0.037331235
36	0x3cae1830	0.021251768
37	0x3dc7ddb8	0.09759086
38	0xbdab4061	-0.08361889
39	0xbdc7bcf9	-0.097528405
40	0x3d41ad1c	0.04728423
41	0x3d16ec2b	0.03684632
42	0x3cef1d2a	0.029188711
43	0x3d47b821	0.048759583
44	0x3e19a409	0.1500398
45	0x3ac4ad8c	0.0015005334
46	0x3cccf702	0.025020126
47	0xbd3b36cd	-0.04570656
48	0xbb956610	-0.004559286
49	0xbd1fb158	-0.038987488
50	0xbdea7cf2	-0.11449613
51	0x3dba8362	0.091070905
52	0xbd959159	-0.073031135
53	0xbdc23694	-0.09483066
54	0x3cd418b0	0.025890678
55	0xbcaae28d	-0.020859981
56	0xbdde255d	-0.1084697
57	0x3e0cecc9	0.13762201
58	0xbd2b1513	-0.041768145
59	0xbcc016c6	-0.02344836
60	0x3c97839f	0.018495379
61	0xbb8f798e	-0.004378504
62	0xbd869e2b	-0.06573137
63	0x3defd4a6	0.11710481
64	0x3d96b251	0.0735823
65	0xbccea760	-0.025226295
66	0xbddadda3	-0.10686805
67	0xbded9cba	-0.11602159
68	0xbbec64ae	-0.0072141504
69	0xbb4340a6	-0.0029793172
70	0x3d81c491	0.0633632
71	0x3d1b4c0d	0.037914325
72	0xbd12672f	-0.035742935
73	0xbdea3049	-0.11434991
74	0xbbcaa19f	-0.0061838175
75	0xbdb7747f	-0.08957767
76	0x3dc53d67	0.09630852
77	0xbd8f7f34	-0.07006684
78	0x3e0d0421	0.13771106
79	0xbd294ee7	-0.041335013
80	0x3d9f6666	0.07783203
81	0x3e04b959	0.1296133
82	0xbd8bb792	-0.06822123
83	0x3d808bbf	0.062766545
84	0x3d96c331	0.073614486
85	0xbcafa117	-0.021439118
86	0x3b11e7b4	0.002226335
87	0x3ddb05ba	0.10694452
88	0xbdccbe31	-0.09997214
89	0xbcf9eda1	-0.030508818
90	0xbdebd3d9	-0.11515016
91	0x3dd93ac8	0.10606915
92	0xbd96c0b1	-0.07360972
93	0xbe0415c2	-0.12898925
94	0xbad0bf2a	-0.0015926112
95	0xbd5640b1	-0.05230779
96	0xbd985b11	-0.074392445
97	0x3dca9ee1	0.09893585
98	0xbd9226c4	-0.071363
99	0xbc939bf0	-0.018018693
100	0x3d4c23a5	0.04983868
101	0xbd1d7519	-0.03844175
102	0xbd7c7de7	-0.061643507
103	0x3dd7daba	0.10539766
104	0xbc9ed391	-0.019387992
105	0x3d245c91	0.04012734
106	0x3d48c0ed	0.049012113
107	0xbd93ecc0	-0.07222891
108	0xbc6f8f90	-0.01462163
109	0x3dbd5cd2	0.0924622
110	0x3d1dbd28	0.03851047
111	0x3c87b3fa	0.016565312
112	0x3db241de	0.087039694
113	0x3cd36f5e	0.02580994
114	0x3dae39e7	0.08507138
115	0x3c2d0884	0.010561112
116	0xbd53b838	-0.051689357
117	0x3d81630a	0.06317718
118	0xbdc5569e	-0.096356615
119	0xbddea2ca	-0.10870893
120	0xbd46672c	-0.048438236
121	0xbde1c246	-0.11023383
122	0xbd7f9a5d	-0.06240307
123	0xbcc02959	-0.023457216
124	0x3c34c961	0.011034341
125	0x3de5ac0c	0.11214456
126	0xbc7a1f82	-0.015266301
127	0x3df09db9	0.11748833
128	0x3d2d6b39	0.042338584
129	0xbdcff36e	-0.101538524
130	0xbe07a8b7	-0.13247953
131	0xbd46ca5a	-0.04853282
132	0x3d049442	0.032367952
133	0x3ddedcee	0.10881983
134	0xbd9ecb77	-0.077536516
135	0xbdbcaa40	-0.0921216
136	0xbd7dcf13	-0.06196506
137	0x3d1935f7	0.03740498
138	0xbde76c43	-0.11299946
139	0xbc6fa360	-0.014626354
140	0x3dfb1f5e	0.12261842
141	0x3d65adfd	0.05607413
142	0xbdf691e5	-0.12039546
143	0x3cfdcd2d	0.030981624
144	0x3d9aae36	0.07552759
145	0xbe02457a	-0.12721816
146	0xbd6bf864	-0.05760993
147	0x3c1fbb58	0.009749256
148	0x3cf46f04	0.029838093
149	0xbdcc735e	-0.09982942
150	0x39e7a8cc	0.00044185517
151	0xbe0bb839	-0.13644494
152	0xbd998d71	-0.07497681
153	0x3c7df288	0.0154997185
154	0xbd62aafb	-0.05533884
155	0xbcfc20e3	-0.0307774
156	0x38e410b0	0.000108749955
157	0x3d5187dc	0.051154956
158	0xbd7754eb	-0.06038372
159	0x3d5130b5	0.05107184
160	0xbc881354	-0.016610779
161	0x3c88b30f	0.016686944
162	0xbdce898d	-0.100848295
163	0xbd3e717d	-0.04649495
164	0x3d5329f5	0.051553685
165	0xbd894df8	-0.067043245
166	0xbe04eeee	-0.1298177
167	0xbd75d762	-0.06001986
168	0xbdd016c8	-0.10160595
169	0x3daa0bc3	0.083030246
170	0xbdf324e6	-0.11872272
171	0x3d77d558	0.060506195
172	0x3c792277	0.015205971
173	0x3c6e35cb	0.014539192
174	0x3be7ae40	0.0070703328
175	0xbe14f5e5	-0.14546926
176	0x3da14f62	0.07876469
177	0xbd670b57	-0.0564073
178	0xbda059d3	-0.078296326
179	0x3d4a1108	0.04933265
180	0x3dce9bd9	0.10088319
181	0xbdb0e62a	-0.0863765
182	0xbe03b596	-0.12862238
183	0xbc16c606	-0.009202486
184	0xbdfaaf81	-0.12240506
185	0xbe10463e	-0.14089295
186	0x3dd78082	0.10522558
187	0x3e06ece1	0.131763
188	0xbd0ce183	-0.034394752
189	0x3b314492	0.0027048928
190	0x3dc88157	0.097902946
191	0xbd6df526	-0.05809512
192	0x3d3e43cc	0.046451375
193	0x3dabf3ac	0.08396086
194	0x3e014e2c	0.12627476
195	0x3d8d6c6f	0.06905448
196	0xbdd3f905	-0.10350231
197	0x3d3aac02	0.045574196
198	0xbde82aca	-0.11336286
199	0x3d5ed12b	0.054398697
200	0xbde19239	-0.11014218
201	0xbc9b9b0c	-0.01899483
202	0xbb0b1faa	-0.002122859
203	0x3de15c83	0.11003973
204	0xbd99afd3	-0.07504239
205	0xbced8221	-0.028992714
206	0xbd8693b8	-0.06571144
207	0x3d79b0b8	0.060959548
208	0xbd0075eb	-0.031362455
209	0xbd60ec34	-0.05491276
210	0xbd4c7ef0	-0.049925745
211	0xbda84cc4	-0.08217767
212	0xbd8f9caf	-0.07012307
213	0xbd95b56f	-0.07309996
214	0x3d883db5	0.06652395
215	0xbd3f7421	-0.04674161
216	0xbdd1850a	-0.10230453
217	0xbc5f7c88	-0.01364053
218	0xbdeda153	-0.11603036
219	0xbd893b35	-0.06700746
220	0xbd975401	-0.07389069
221	0x3db7785c	0.089585036
222	0xbd8fbe50	-0.07018721
223	0x3d5df559	0.05418906
224	0x3dd84f28	0.10561973
225	0xbdf64b58	-0.120260894
226	0xbb5932bf	-0.003314182
227	0xbd488e12	-0.048963614
228	0xbc6c6709	-0.014428862
229	0xbd36ee23	-0.0446607
230	0x3c372479	0.011178129
231	0xbd1a98ca	-0.037743367
232	0x3ad7373f	0.0016419663
233	0x3c33c8a6	0.010973131
234	0xbdc618cd	-0.09672699
235	0x3d0af566	0.033925436
236	0xbd367906	-0.04454901
237	0xbdb54f56	-0.08853023
238	0x3d6f01c0	0.05835128
239	0x3d7bc803	0.061470043
240	0x3dcaa921	0.0989554
241	0x3cbf9f02	0.02339125
242	0xbd9d591c	-0.07683012
243	0x3c0dc8a7	0.008653796
244	0xbc02c8de	-0.007982461
245	0xbd81977b	-0.06327721
246	0xbdc05c12	-0.09392561
247	0xbddef948	-0.108873904
248	0x3e015807	0.12631236
249	0x3d2d45fc	0.04230307
250	0x3bcf7ae1	0.006331787
251	0x3c85b982	0.016323809
252	0x3d868d8d	0.065699674
253	0x3c1fccdd	0.009753433
254	0x3db4779c	0.08811876
255	0xbd48feb1	-0.049071018

bias_2 f4 [100]
0	0x3d07ab27	0.033122208
1	0x3d61cd60	0.0551275
2	0xbb167668	-0.002295876
3	0xbdd5200c	-0.10406503
4	0x3db0bb2e	0.08629452
5	0x3d1e079a	0.03858147
6	0x3cf0cb62	0.029393855
7	0xbc8b7769	-0.017024713
8	0x3d141cb6	0.036160193
9	0x3d35442e	0.044254474
10	0x3ca18d9b	0.019720843
11	0x3e2db9ef	0.1696546
12	0xbcc059d8	-0.02348034
13	0xbbe1019d	-0.0068666474
14	0xbb8cd3db	-0.004297716
15	0x3d0ec143	0.034852277
16	0x3c0b248f	0.008492603
17	0x3e1c9713	0.15292005
18	0x3e09e243	0.13465218
19	0x3d06ac5e	0.032879226
20	0x3d0f8db8	0.035047263
21	0x3bbd418f	0.0057756375
22	0xbcaef470	-0.021356791
23	0x3a3c9a06	0.0007194582
24	0x3ddab708	0.10679442
25	0xbcb8f480	-0.022577524
26	0xbc51c9d3	-0.012804466
27	0x3c2b6d11	0.010463015
28	0x3d02b65c	0.031912193
29	0x3d5d2653	0.053991627
30	0x3dd85fc9	0.105651446
31	0x3e32863a	0.17434016
32	0xbcd05869	-0.025432782
33	0x3e0856de	0.13314387
34	0xbc06d4fa	-0.0082294885
35	0x3ddc346d	0.10752187
36	0xbc0d5f71	-0.008628712
37	0x3c910418	0.017702147
38	0x3dab8be3	0.08376291
39	0x3c70a767	0.014688349
40	0x3dd0361a	0.10166569
41	0xbafd52d1	-0.0019327049
42	0x3ddff972	0.1093625
43	0xbc741c14	-0.0148992725
44	0x3d4ecffc	0.050491318
45	0xbce86a6c	-0.028371058
46	0x3e1e10c4	0.15436083
47	0x3de67208	0.112522185
48	0x3d9ba2ca	0.07599409
49	0x3da45b94	0.0802528
50	0xbd35b9c6	-0.04436662
51	0x3da2e5fa	0.07954021
52	0x3da3b79a	0.079940036
53	0xbdf3ba4c	-0.11900768
54	0x3c566620	0.013085872
55	0x3daa0e5d	0.08303521
56	0xbd694d26	-0.05695834
57	0x3e34f99c	0.17673343
58	0x3d029095	0.031876165
59	0xbc9f973a	-0.01948129
60	0x3d258a05	0.04041483
61	0x3dac3515	0.08408562
62	0x3badb0ff	0.0053006406
63	0x3d6f7deb	0.058469694
64	0x3da04025	0.078247346
65	0xbd127fbf	-0.03576636
66	0x3ded6b6e	0.11592756
67	0x3df35a12	0.11882414
68	0xbd08b70b	-0.03337769
69	0xbbd9cd40	-0.006646782
70	0x3bcfca34	0.006341243
71	0x3d1e550b	0.038655322
72	0x3d9c1320	0.07620835
73	0xbd292de4	-0.04130353
74	0xbcd89f1b	-0.026443055
75	0x3de1563e	0.110027775
76	0x3d17488a	0.036934413
77	0x3d01015c	0.031495437
78	0xbc51b324	-0.012799058
79	0x3bb59657	0.0055416035
80	0x3d823c8f	0.06359207
81	0x3d622ace	0.055216603
82	0x3d42cd3f	0.04755902
83	0xbc3b496d	-0.01143108
84	0x3cb6dcb3	0.022322034
85	0x3d86faa6	0.06590776
86	0x3ba3ab0c	0.0049947556
87	0x3df8631b	0.12128278
88	0x3e260285	0.16211899
89	0x3cd331bd	0.025780553
90	0x3af8493e	0.0018942726
91	0x3e0203e8	0.12696803
92	0x3dcf6058	0.10125798
93	0x3d90fde8	0.07079679
94	0x3daeb89c	0.08531305
95	0x3e124bd8	0.14286745
96	0xbd677a7f	-0.056513306
97	0x3dc751d2	0.09732403
98	0xbd358e71	-0.044325296
99	0x3d9585dd	0.07300923

weight_4 f4 [100, 100]
0	0xbdd02029	-0.10162384
1	0x3d69be50	0.05706626
2	0xbcd43fa9	-0.025909262
3	0x3c7bddfb	0.0153727485
4	0xbdb72b77	-0.08943837
5	0xbde1c638	-0.11024135
6	0xbd20bc43	-0.03924204
7	0xbd73886e	-0.05945628
8	0x3c49a1f2	0.012306677
9	0xbe1565d3	-0.14589624
10	0xbe0c7995	-0.13718255
11	0xbd9a087b	-0.07521149
12	0xbca6f705	-0.02038146
13	0xbd493020	-0.04911816
14	0x3c46c409	0.012131699
15	0x3dc93a2d	0.09825549
16	0xb9cb62a6	-0.00038792676
17	0x3d9d2ab8	0.076741636
18	0xbd64cc85	-0.055859108
19	0x3d9f202c	0.07769808
20	0x3ddac3d6	0.10681884
21	0xbd28ddcb	-0.041227143
22	0x3dbaa265	0.091130055
23	0x3aec662c	0.0018035821
24	0x3dff6780	0.12470913
25	0xbe6567c1	-0.2240286
26	0x3da16b58	0.07881802
27	0xbb994ad9	-0.004678112
28	0xbd3407e0	-0.043952823
29	0xbdbcf7d0	-0.09226954
30	0x3dbebdaa	0.09313519
31	0xbe084705	-0.13308342
32	0xbda117bc	-0.07865855
33	0x3d25e12c	0.040497944
34	0x3e1ee20c	0.15515918
35	0x3d194248	0.037416726
36	0xbcb96379	-0.02263044
37	0x3de308f9	0.11085696
38	0x3da32ff3	0.0796813
39	0xbdf20aa0	-0.11818433
40	0xbc20e3c9	-0.009819933
41	0xbd13c175	-0.036073167
42	0x3d82767c	0.06370255
43	0x3da72c71	0.081627734
44	0xbd293800	-0.04131317
45	0xbdd2b2ad	-0.10287986
46	0xbc836d6a	-0.016043384
47	0xbdd151b0	-0.10220659
48	0x3e517738	0.20455635
49	0x3d6a352d	0.05717962
50	0x3dc57488	0.09641367
51	0x3d0f9836	0.03505727
52	0x3d27d44a	0.04097394
53	0x3d408664	0.047003165
54	0xbccc7c97	-0.024961753
55	0x3dd28863	0.1027992
56	0x3d00771d	0.031363595
57	0xb887bb32	-6.4721695e-05
58	0x3ccac053	0.02474991
59	0xbdb39883	-0.08769324
60	0x3dd0f218	0.10202426
61	0xbe3537f2	-0.17697123
62	0x3dc0c292	0.09412111
63	0xbdf86d6f	-0.12130248
64	0xbe0a3ef7	-0.13500582
65	0xbdf4f91c	-0.11961576
66	0xbded370b	-0.11582764
67	0xbd2a6caa	-0.041607536
68	0x3d7b6681	0.061377052
69	0xbde1c1c4	-0.11023286
70	0x3d1cfe8e	0.0383287
71	0x3c4df2b7	0.012570075
72	0x3ceef88a	0.029171247
73	0x3cab0f52	0.020881329
74	0x3ae0e606	0.0017158396
75	0x3e19b9bd	0.1501226
76	0x3d3ae39d	0.045627225
77	0xbdef9237	-0.1169781
78	0x3e241319	0.1602291
79	0x3d0ad2c9	0.033892427
80	0xbcfb7515	-0.030695478
81	0x3b9232f4	0.0044616405
82	0x3e1c16bc	0.15243047
83	0xbca65c3c	-0.020307653
84	0x3d9cc8d5	0.07655493
85	0x3e261c14	0.16221648
86	0x3c430521	0.011903078
87	0xbc9b6d33	-0.018972969
88	0xbcaf085f	-0.021366296
89	0x3dbaf971	0.091296084
90	0x3dc2c1d4	0.09509626
91	0xbe192f4e	-0.14959452
92	0x3e218706	0.15774164
93	0x3d851397	0.06497877
94	0x3d7e3ea9	0.062071476
95	0x3d356b71	0.044291917
96	0xbde2f8fd	-0.11082647
97	0xbd5e0089	-0.05419973
98	0xbe1e26d4	-0.15444499
99	0xbd73ea03	-0.059549343
100	0xbd7bcb43	-0.061473142
101	0xbbf74de5	-0.0075471275
102	0xbdb59541	-0.088663585
103	0xbdf00e2d	-0.11721454
104	0xbda80e11	-0.08205808
105	0x3d3b2c99	0.04569683
106	0xbcffd192	-0.03122786
107	0xbb09cf74	-0.0021028193
108	0xbe04b2e2	-0.12958863
109	0x3d89df25	0.067320146
110	0xba92a63b	-0.0011188457
111	0xbc429eea	-0.011878708
112	0x3d80a64a	0.06281717
113	0x3cd33337	0.025781257
114	0xbcdc24aa	-0.026872952
115	0xbbf3983b	-0.007433919
116	0x3e11d73a	0.14242259
117	0xbdbfeb37	-0.093710355
118	0xbe1db18d	-0.15399761
119	0xbd08d8a6	-0.033409737
120	0xbe34ccfa	-0.17656317
121	0x3e0a6707	0.13515864
122	0x3d51fdc2	0.051267393
123	0x3d597c42	0.053097017
124	0xbdf7dc40	-0.12102556
125	0x3dec9889	0.11552531
126	0xbd936b2b	-0.07198175
127	0x3d9a89ac	0.0754579
128	0xbd34daf5	-0.044154126
129	0xbddf02da	-0.10889216
130	0xbddb855d	-0.107187964
131	0xbe379240	-0.17926884
132	0x3dabbc96	0.08385579
133	0xbe1453a8	-0.14485037
134	0x3da76aba	0.08174653
135	0x3dc87284	0.09787467
136	0x3dbfaea3	0.09359481
137	0x3dd5e12d	0.104433395
138	0x3e235a13	0.1595233
139	0x3d353860	0.044243217
140	0x3e250e72	0.16118792
141	0x3d29235f	0.041293498
142	0x3c95c555	0.018282572
143	0xbda5fcb0	-0.08104837
144	0xbc741a08	-0.014898784
145	0xbdb89c8e	-0.090142354
146	0xbe1ef4bc	-0.15523046
147	0xbd58e43e	-0.052952044
148	0x3d46eaef	0.048563894
149	0xbd900d03	-0.07033732
150	0x3d1bb175	0.038011033
151	0x3e257a28	0.1615988
152	0xbda10a9c	-0.07863352
153	0x3e2aa5c3	0.16664796
154	0x3d357596	0.04430159
155	0x3d889912	0.06669821
156	0x3e1ea658	0.15493143
157	0xbe01e000	-0.12683105
158	0x3e3abf89	0.18237127
159	0x3d78b1f0	0.06071657
160	0x3db1b3d1	0.086768754
161	0xbe1b316f	-0.15155576
162	0xbdc5d3e2	-0.09659554
163	0xbc5b8450	-0.013398245
164	0x3b98f3cf	0.004667736
165	0xbd5fb433	-0.05461521
166	0xbdd96514	-0.10614982
167	0x3e01b42c	0.12666386
168	0xbd1d0dc1	-0.038343195
169	0x3e098f9d	0.1343369
170	0xbdc7f469	-0.097634144
171	0x3d5aa083	0.053375732
172	0xbdc83d48	-0.097773135
173	0x3dbac9f9	0.091205545
174	0x3d08df4e	0.033416085
175	0x3ca37366	0.019952487
176	0xbdaa3bb7	-0.08312171
177	0x3d0b49fa	0.034006096
178	0x3e0acbc1	0.13554288
179	0x3bb8dab0	0.005641304
180	0x3d9fe52b	0.07807382
181	0xbd42ba66	-0.047541045
182	0x3d60fef5	0.054930646
183	0x3e12b714	0.14327651
184	0x3d2828f8	0.041054696
185	0x3d5b9580	0.05360937
186	0xbda81f00	-0.08209038
187	0xbd1c0f16	-0.038100325
188	0x3c84e601	0.016222956
189	0xbd9f2d81	-0.07772351
190	0x3d8db05c	0.069184035
191	0xbccedcee	-0.025251832
192	0xbdd7059b	-0.10499116
193	0x3dfacfb0	0.122466445
194	0xbdb218ca	-0.086961344
195	0xbd1695e9	-0.03676406
196	0x3d8c7f67	0.068602376
197	0xbe07fa4c	-0.13279074
198	0x3dce4cf8	0.100732744
199	0x3e7e93e2	0.248611
200	0x3c542632	0.01294856
201	0x3d8fbf94	0.070189625
202	0xbd50c66a	-0.050970472
203	0xbdcaf2ae	-0.09909569
204	0xbc94e5f4	-0.018176056
205	0x3d14f647	0.03636768
206	0xbcba9127	-0.022774292
207	0xbd4fa365	-0.050692935
208	0x3c9e582b	0.019329151
209	0x3d60fbee	0.05492776
210	0x3ce4a64b	0.027911326
211	0x3d9412cc	0.07230148
212	0xbd79f569	-0.061025057
213	0x3d87c2a6	0.06628923
214	0x3c901500	0.017588139
215	0x3d9294bb	0.07157274
216	0x3d3c343b	0.04594825
217	0xbd905b3c	-0.070486516
218	0xbd34a6a7	-0.044104245
219	0x3d9b1af1	0.07573498
220	0xbbf4a682	-0.0074661383
221	0x3d62dddd	0.055387367
222	0xbd4e8f53	-0.050429653
223	0x3e2a951e	0.16658446
224	0xbdb2ada2	-0.08724524
225	0xbd3316a1	-0.043722752
226	0x3d4540a6	0.048157357
227	0x3d3cffe5	0.046142478
228	0xbd07bbb1	-0.03313798
229	0x3c8df0a6	0.017326664
230	0xbdaf5f14	-0.085630566
231	0x3d64785f	0.055778857
232	0x3e1b9b36	0.15195927
233	0x3da5c62d	0.0809444
234	0xbe08ba29	-0.13352264
235	0x3d43705c	0.047714576
236	0x3dd93e29	0.10607559
237	0x3d77a180	0.060456753
238	0x3d899ba6	0.06719141
239	0x3d565795	0.05232962
240	0xbe216b7a	-0.15763655
241	0x3a1ae903	0.0005909355
242	0xbe18551e	-0.1487622
243	0xbd0accfe	-0.033886902
244	0x3d81584b	0.06315669
245	0xbd77128c	-0.060320422
246	0x3d25f8ae	0.040520363
247	0xbd6134e1	-0.05498207
248	0x3d0586d8	0.0325993
249	0xbafd393d	-0.0019319427
250	0x3e34f2b6	0.17670712
251	0xbdb54867	-0.088517
252	0xbca71f48	-0.020400658
253	0x3d931f27	0.07183676
254	0x3e0c6716	0.13711199
255	0xbe19f7cb	-0.15035932

bias_4 f4 [100]
0	0x3dbacb97	0.09120863
1	0xbc0e274c	-0.008676361
2	0x3d7efc38	0.062252253
3	0x3cb24c8e	0.02176502
4	0x3cd2396a	0.025662143
5	0x3d0e2276	0.034700833
6	0xbcebab19	-0.02876811
7	0x3ceb1861	0.028698148
8	0xbca71544	-0.020395882
9	0x3c4f2f92	0.012645619
10	0x3da78779	0.08180136
11	0x3dc21718	0.09477061
12	0xbd41f1c9	-0.047349725
13	0x3a84c027	0.0010128067
14	0x3dd4926a	0.10379489
15	0x3d6e5c7b	0.058193665
16	0x3c158281	0.009125353
17	0x3d902883	0.07038977
18	0xbd0cf87e	-0.034416668
19	0x3c807163	0.015679067
20	0x3cff8f75	0.031196335
21	0x3d594074	0.053039983
22	0x3d1268c9	0.035744462
23	0x3cdc714c	0.026909493
24	0x3cd23401	0.025659563
25	0x3ce24c17	0.027624173
26	0x3e7f8aa9	0.24955238
27	0x3d9dc43c	0.07703444
28	0x3dacf719	0.08445568
29	0x3df7701b	0.12081929
30	0xbb14550f	-0.0022633707
31	0x3c4ced23	0.01250771
32	0xbc0add7b	-0.008475657
33	0xba6fea35	-0.0009152026
34	0x3d5d622c	0.054048702
35	0x3df53aae	0.11974083
36	0x3c64bb4a	0.013960669
37	0x3b0fd056	0.0021944246
38	0x3acd44d2	0.0015660769
39	0x3d906287	0.070500426
40	0x3dc7b1c1	0.09750701
41	0x3c32ba3a	0.010908658
42	0x3c1dbddb	0.009627785
43	0x3cc6794f	0.024227766
44	0xbd315f4b	-0.04330377
45	0xbc90d3b0	-0.017679065
46	0x3a017f6e	0.0004939948
47	0x3c661e4f	0.014045312
48	0x3d88887d	0.06666658
49	0x3cc96d34	0.024588205
50	0x3d388983	0.045053016
51	0x3d9c272f	0.07624661
52	0x3c559364	0.013035629
53	0x3d4d4ca1	0.050121907
54	0x3d85d18d	0.06534109
55	0x3d6d1f9b	0.05789147
56	0x3d270c6b	0.040783327
57	0x3c8fecbd	0.01756894
58	0x3d87147b	0.06595703
59	0xbc8dfa85	-0.017331371
60	0xbcba5c12	-0.02274898
61	0x3d736f16	0.05943211
62	0x3e113ff8	0.14184558
63	0x3d262f57	0.04057249
64	0x3dc43cf8	0.09581941
65	0x3e3ba065	0.18322904
66	0x3e06cfa4	0.13165146
67	0x3dce9ca4	0.100884706
68	0xbd4e6397	-0.050387945
69	0x3c115f1a	0.008872772
70	0x3dee0e0b	0.11623772
71	0x3c39c2da	0.01133796
72	0x3e03645e	0.12831256
73	0x3d2fbd5f	0.042905208
74	0xbc7c63bf	-0.015404641
75	0x3d0ee35e	0.034884803
76	0x3d46133d	0.04835819
77	0x3cd83dd9	0.026396679
78	0x3d50b42f	0.050953086
79	0x3e54e15b	0.20789091
80	0x3e08211b	0.13293879
81	0x3da0d871	0.07853783
82	0x3d8cf6af	0.06882989
83	0x3c64793f	0.013944923
84	0x3dfdb72e	0.123884544
85	0xbd03bd3f	-0.0321629
86	0x3d3544a8	0.04425493
87	0x3d084a19	0.03327379
88	0x3bdb395c	0.0066901874
89	0x3d440ae5	0.047861952
90	0x3dd6cb29	0.104879685
91	0xbc00d544	-0.0078633465
92	0x3dafd1cd	0.08584938
93	0xbd14d908	-0.03633979
94	0xbdc78b79	-0.09743399
95	0xbc5d3547	-0.013501472
96	0x3e314bf5	0.17314132
97	0x3cdf696b	0.027271947
98	0xbc466bbc	-0.012110647
99	0xbd0d0961	-0.034432773

weight_6 f4 [100, 100]
0	0xbd824386	-0.06360535
1	0xbc6b0393	-0.014344114
2	0x3db827b2	0.08991946
3	0xbd8d8879	-0.06910796
4	0xbc11d1d0	-0.008900121
5	0x3d548d2f	0.051892456
6	0xbc9de937	-0.019276245
7	0xbd472fed	-0.04862969
8	0xbdc25bee	-0.094901904
9	0xbd9d150c	-0.0767003
10	0x3d543bc7	0.05181482
11	0xbdb9cfe0	-0.09072852
12	0xbda5c471	-0.08094109
13	0x3ded317a	0.115817025
14	0x3d04ae4d	0.03239279
15	0x3bad1779	0.005282339
16	0xbc415ef8	-0.0118024275
17	0xbab07c7a	-0.0013464831
18	0x3c0946ca	0.008378694
19	0x3cc18c80	0.023626566
20	0xbdd06ad7	-0.10176628
21	0xbdc8656b	-0.09784969
22	0xbda54073	-0.08068933
23	0x3db35aa2	0.08757521
24	0x3d8983b3	0.06714573
25	0x3ce6c8ea	0.028171975
26	0xbdc0f1e4	-0.09421137
27	0xbc057b3f	-0.00814706
28	0x3d15017e	0.036378376
29	0xbd0d931e	-0.03456413
30	0xbd0c4251	-0.03424293
31	0xbdf44dc6	-0.119288966
32	0xbd088836	-0.033333026
33	0xbd48e97b	-0.04905079
34	0xbdf9e7e6	-0.12202434
35	0x3cd0582c	0.025432669
36	0xbdc62019	-0.09674091
37	0x3c825ac3	0.01591242
38	0xbc4420dd	-0.011970726
39	0xbd74afdf	-0.059738036
40	0xbd3846e9	-0.0449895
41	0x3e006f89	0.12542547
42	0xbde5f339	-0.11228032
43	0xbdd58f1b	-0.10427686
44	0x3dd231ab	0.1026338
45	0xbcb050b7	-0.021522863
46	0xbdf2699b	-0.11836549
47	0xbd32417d	-0.043519486
48	0x3c7da0ef	0.015480264
49	0x3c3f9b54	0.011694748
50	0xbd914104	-0.07092479
51	0x3c9b537a	0.018960703
52	0x3c113c5b	0.0088644875
53	0xbddc1bb1	-0.10747469
54	0xbdd92f5d	-0.10604737
55	0xbd53212c	-0.051545307
56	0xbc85244c	-0.01625266
57	0x3d8f425b	0.06995078
58	0xbdd59f58	-0.10430783
59	0xbcab38ec	-0.020901166
60	0x3def8da8	0.11696941
61	0x3dd357aa	0.10319455
62	0x3d525ac6	0.0513561
63	0xbd3b06ea	-0.04566089
64	0x3d2f0e6e	0.04273837
65	0x3dcc3cd8	0.099725425
66	0x3da55b6d	0.08074079
67	0xbd4f18e9	-0.050560866
68	0x3bd554ea	0.0065103667
69	0x3de23e93	0.11047091
70	0xbd852ddb	-0.06502887
71	0xbde1c711	-0.11024297
72	0xbdf3e7d8	-0.11909455
73	0xbdd91061	-0.10598827
74	0xbcd76dc6	-0.026297461
75	0x3ce1a02b	0.027542194
76	0x3d467de5	0.048459906
77	0xbc1e1d0c	-0.00965048
78	0xbd7acb65	-0.06122913
79	0x3ca472a4	0.020074196
80	0x3dc35e2a	0.09539445
81	0xbd6bb012	-0.05754096
82	0xbd448479	-0.0479779
83	0x3d0ab545	0.03386428
84	0xbdbfdbd0	-0.09368098
85	0xbc98c9ec	-0.018650971
86	0xbdb77a0b	-0.08958825
87	0xbdf32cc7	-0.11873775
88	0xbdc03c5c	-0.09386513
89	0x3d126912	0.035744734
90	0xbd38255c	-0.044957504
91	0x3d5a61cd	0.053315926
92	0xbc336da4	-0.010951433
93	0xbdd9bcb7	-0.106316976
94	0x3d4eed24	0.050519124
95	0x3d9a0232	0.0751995
96	0xbdb2f203	-0.08737566
97	0xbdd21de2	-0.10259606
98	0xbdbb683b	-0.0915074
99	0x3db992f6	0.09061234
100	0xbe23493d	-0.15945907
101	0xbe276ddf	-0.16350506
102	0x3d96ca36	0.073627874
103	0xbc4afa8b	-0.012388836
104	0xbddc4666	-0.10755615
105	0x3dad6a92	0.08467592
106	0x3d4a1b0a	0.049342193
107	0x3dc68134	0.09692612
108	0xbda5a0c1	-0.08087302
109	0x3dd8a37b	0.105780564
110	0x3da6e3c5	0.08148912
111	0xbcc3d8d9	-0.023907112
112	0x3dcc49af	0.099749915
113	0x3dec66c5	0.11543039
114	0xbda34385	-0.07971863
115	0x3e283b9d	0.1642899
116	0x3d4b633a	0.049655177
117	0x3dc9e872	0.098587885
118	0xbdd3c84b	-0.10340937
119	0xbd5ef6b1	-0.054434482
120	0x3d60859c	0.05481492
121	0x3e5c545f	0.2151656
122	0x3dcf04c9	0.101083346
123	0x3e35de79	0.17760648
124	0xbe2a9ee6	-0.16662177
125	0x3cec1a8e	0.028821256
126	0x3c6fb3b2	0.014630245
127	0xbdffdcc6	-0.12493281
128	0x3db526e8	0.088453114
129	0x3dd55b5b	0.10417815
130	0x3c3f4d93	0.01167621
131	0xbd2faba6	-0.042888306
132	0x3d7d2aee	0.06180852
133	0xbe132cdd	-0.14372583
134	0x3da9b8da	0.08287211
135	0xbd05d649	-0.03267506
136	0xbc8456e2	-0.01615471
137	0x3dfff324	0.12497547
138	0xbcf3f7c2	-0.029781226
139	0xbe526d97	-0.20549618
140	0xbd197229	-0.037462387
141	0x3e1ca9c3	0.15299134
142	0x3c1d46d4	0.009599406
143	0xbc92d081	-0.017921688
144	0x3cdd6d3c	0.027029626
145	0xbb9ffa71	-0.00488215
146	0xbdf034a5	-0.11728791
147	0x3deca42b	0.1155475
148	0xbbfa24aa	-0.007633765
149	0xbdae4af9	-0.08510394
150	0x3de3fc82	0.111321464
151	0x3e4e537d	0.20149036
152	0x3d5de0a5	0.054169316
153	0xbbee8754	-0.007279316
154	0xbd910172	-0.07080354
155	0xbd8e150d	-0.06937609
156	0x3d993e2d	0.07482562
157	0xbe032410	-0.12806726
158	0x3d902f38	0.07040256
159	0xbde0b50f	-0.10972034
160	0x3de8dd97	0.1137039
161	0x3ce00770	0.027347296
162	0x3e18a75d	0.14907594
163	0xbd62645f	-0.055271503
164	0x3da30c52	0.07961334
165	0x3c8e91d8	0.017403528
166	0xbd8c7b24	-0.06859425
167	0xbe334236	-0.17505726
168	0x3d52b43f	0.051441427
169	0x3dbf97d1	0.093551286
170	0xbe09d21b	-0.13459055
171	0xbd8b626a	-0.0680588
172	0xbbe87031	-0.0070934524
173	0x3de4ebdf	0.11177801
174	0xbda59def	-0.08086764
175	0x3e096381	0.13416864
176	0x3e001118	0.12506521
177	0x3d808b20	0.06276536
178	0x3e046d2e	0.12932274
179	0xbd4e312b	-0.05033986
180	0x3e6411ca	0.22272411
181	0xbd929516	-0.07157342
182	0x3d92c1c3	0.07165863
183	0x3da46b8e	0.08028327
184	0x3ba598b5	0.0050536045
185	0x3dcb4054	0.09924379
186	0x3df801b6	0.12109701
187	0xbdd5095f	-0.10402178
188	0xbd1e08d6	-0.038582645
189	0x3d842990	0.0645324
190	0x3cc2019b	0.023682406
191	0xbdad2897	-0.084550075
192	0x3e1ee228	0.1551596
193	0x3e00ea9f	0.12589501
194	0x3d9474c7	0.07248836
195	0xbdd92e5b	-0.10604545
196	0x3dd7af7f	0.1053152
197	0x3cb41762	0.021983806
198	0xbd60219b	-0.05471955
199	0xbdb293d1	-0.087196
200	0xbdb3b596	-0.08774869
201	0xbc2549b1	-0.01008837
202	0x3d6028f2	0.05472655
203	0x3d4e05c2	0.05029846
204	0xbd1c0bd0	-0.038097203
205	0xbcf6b9e7	-0.030117942
206	0xbdb412c6	-0.08792643
207	0xbdc553df	-0.09635138
208	0xbd5cf155	-0.05394109
209	0x3d9df581	0.07712842
210	0xbd6578cd	-0.056023408
211	0xbde2e3c8	-0.11078602
212	0xbdee79d9	-0.11644334
213	0x3a2cdac7	0.00065938797
214	0xbd9c3cb8	-0.07628769
215	0xbdb8ccf8	-0.0902347
216	0x3d8ef01b	0.0697939
217	0xbdc97c8b	-0.09838208
218	0x3ca76372	0.020433161
219	0xbd592412	-0.053012915
220	0x3db51f60	0.08843875
221	0xbdd4bb15	-0.103872456
222	0x3d28b075	0.041183908
223	0xbd81234e	-0.06305562
224	0xbd3abd19	-0.045590494
225	0xbded4e01	-0.11587144
226	0x3acdeea7	0.0015711383
227	0xbd35f5be	-0.04442381
228	0x3d4814a6	0.048847817
229	0xbdc3c550	-0.09559119
230	0x3d6c80ea	0.05774013
231	0x3c954e16	0.01822571
232	0xbd49ba8a	-0.049250163
233	0xbd3b18a7	-0.045677807
234	0x3d8814eb	0.06644615
235	0xbdee2f95	-0.11630169
236	0xbdaf6197	-0.08563536
237	0x3dc48cfd	0.09597204
238	0xbdd1f4f3	-0.102517985
239	0xbc7fb08c	-0.015606057
240	0xbca0ae08	-0.019614235
241	0xbb498694	-0.003075038
242	0x3db739e0	0.08946586
243	0xbd4603d5	-0.0483435
244	0xbd966203	-0.07342913
245	0x3d293a41	0.04131532
246	0xbd3ea8ae	-0.046547584
247	0xbde917ba	-0.113814786
248	0xbd687333	-0.056750488
249	0xbda2009d	-0.07910273
250	0x3d67f89c	0.056633577
251	0x3ce847fa	0.028354634
252	0xbcbbfa1b	-0.022946408
253	0xbdf16ea5	-0.11788682
254	0x3c229703	0.009923699
255	0x392cb67f	0.00016471183

bias_6 f4 [100]
0	0xbcfc3d8c	-0.030791067
1	0x3d3e99f5	0.046533544
2	0xb7f89861	-2.963486e-05
3	0xbbca0728	-0.006165404
4	0x3de8fc41	0.113762386
5	0x3d7a24bf	0.0610702
6	0x3d8c7582	0.0685835
7	0x3d27b8a4	0.04094757
8	0x3d05bf3b	0.032653075
9	0xbd398e5f	-0.04530179
10	0x3da2bf3c	0.07946631
11	0x3de1d2ee	0.1102656
12	0x3d93f6ec	0.07224831
13	0x3d20e44b	0.039280217
14	0x3dc133e3	0.09433725
15	0x3d85b786	0.06529145
16	0xbcc601dd	-0.02417081
17	0x3dbc7a6e	0.09203039
18	0x3cb7ee41	0.022452476
19	0x3e1d738b	0.15376107
20	0x3e0b3102	0.13592914
21	0x3e24a405	0.16078193
22	0x3cb53314	0.022119083
23	0x3dea7ae1	0.114492185
24	0x3cb56c00	0.022146225
25	0x3d751bda	0.059841014
26	0x3d2a3feb	0.041564863
27	0x3d0c59f0	0.03426546
28	0x3d814df5	0.06313697
29	0x3d829b65	0.063772954
30	0x3dcf9bc8	0.10137135
31	0x3cc1236a	0.023576457
32	0x3d9160d0	0.07098544
33	0x3d5040a6	0.050842904
34	0x3c97c318	0.018525645
35	0xbc06651a	-0.008202815
36	0xbcac23fd	-0.021013254
37	0xbb50ffff	-0.0031890867
38	0xbcb7c8b5	-0.022434572
39	0x3ce304fd	0.02771234
40	0x3d8031e0	0.06259513
41	0x3d85cbd6	0.06533019
42	0x3d0a04d7	0.033696022
43	0x3da5ff57	0.08105343
44	0xbc5ec209	-0.013596066
45	0x3d1bd820	0.03804791
46	0x3d8a23d9	0.06745119
47	0x3dfa62f4	0.12225905
48	0x3d0bd57a	0.034139134
49	0x00000000	0.0
50	0xbb3b3014	-0.0028562592
51	0x3d8c38a1	0.068467386
52	0x3cbffc9d	0.023435885
53	0x3db0d4e8	0.08634359
54	0xbcd40fed	-0.0258865
55	0x3cff26ef	0.031146495
56	0xba1bb09b	-0.0005939097
57	0xbd141586	-0.03615334
58	0xbca3d1d5	-0.019997517
59	0x3d00cd34	0.031445697
60	0x3e10eaed	0.14152117
61	0xb980b320	-0.0002454752
62	0x3d33349c	0.043751344
63	0x3b23dfa4	0.0025005126
64	0x3d84be0d	0.06481562
65	0x3e26d285	0.16291244
66	0x3d00e7be	0.031471007
67	0x3d549fe6	0.051910304
68	0x3db4ac38	0.088219106
69	0xbca8e5aa	-0.020617325
70	0x3ccfda5e	0.02537268
71	0x3d72d688	0.059286624
72	0x3d9b884b	0.07594355
73	0x3d8bb262	0.06821133
74	0x3d9a5446	0.07535605
75	0xbca77c94	-0.020445146
76	0x3d8e519a	0.06949158
77	0x3cc36d16	0.023855727
78	0x3d837531	0.06418837
79	0x3c4993a0	0.012303263
80	0x3a560587	0.0008164276
81	0x3a9a9e23	0.0011796396
82	0x3d8f2b11	0.06990636
83	0x3e0df3a6	0.13862476
84	0x3b1d8070	0.0024032854
85	0x3d4a1d33	0.049344253
86	0x3c7738f0	0.015089259
87	0x3d669493	0.056294035
88	0x3d64478e	0.055732302
89	0x3da92675	0.08259288
90	0x3df05dde	0.11736654
91	0x3dc16d68	0.09444696
92	0xbc30c1c4	-0.010788385
93	0xbc2f67a4	-0.010705862
94	0x3dacb389	0.08432681
95	0x3c7d11fc	0.015446182
96	0x3de2ff61	0.11083866
97	0x3dd3617c	0.10321328
98	0x3da97fdb	0.082763396
99	0x3cbb2b21	0.022847714

weight_8 f4 [100, 100]
0	0xbdac512f	-0.08413922
1	0x3dfe5364	0.12418249
2	0xbdc58e6f	-0.09646308
3	0xbde06f9d	-0.109587885
4	0xbdb5ec2e	-0.08882938
5	0xbd5785e4	-0.052617922
6	0xbca31cf2	-0.019911263
7	0x3dfb6677	0.12275403
8	0x3c457785	0.012052421
9	0x3bcd0c5d	0.0062575773
10	0x3d9e5f00	0.077329636
11	0x3c5a749a	0.013333464
12	0x3e06a0d8	0.13147295
13	0x3e30c4c4	0.1726256
14	0xbd4093a0	-0.047015786
15	0x3db9b21a	0.09067173
16	0xbdef03c5	-0.11670641
17	0x3e009668	0.12557375
18	0x3d722ee1	0.05912674
19	0x3d05d35a	0.032672264
20	0xbe319e63	-0.17345576
21	0x3dab57df	0.083663695
22	0x3d9389f9	0.072040506
23	0xbe069c12	-0.13145474
24	0xbd37d23a	-0.044878222
25	0xbdf124d7	-0.11774605
26	0xbdfcf55d	-0.12351487
27	0xbd3d7005	-0.04624941
28	0x3d9bee67	0.07613831
29	0x3de7969e	0.11308025
30	0x3d90d154	0.07071176
31	0xbd20e4b7	-0.03928062
32	0xbd277bcf	-0.040889557
33	0x3dec4f17	0.11538523
34	0xbdf22532	-0.11823501
35	0xbca021a0	-0.019547284
36	0xbd94834c	-0.072516054
37	0xbdd6a45e	-0.10480569
38	0x3cf8f756	0.030391376
39	0x3dffc489	0.12488658
40	0xbd417da2	-0.047238953
41	0x3e0dfc7f	0.13865851
42	0x3e00fdcb	0.12596814
43	0x3d3c23a8	0.045932442
44	0x3bd38637	0.0064552086
45	0x3e123dcb	0.14281385
46	0xbdbc0f8d	-0.091826536
47	0x3d97d1cb	0.07413062
48	0x3d858a5c	0.065205306
49	0x3dde7bc3	0.108634494
50	0x3de95080	0.11392307
51	0xbad087c9	-0.0015909608
52	0x3d1bc5be	0.03803038
53	0xbdfcc583	-0.1234236
54	0x3a87c2b9	0.0010357714
55	0xbe19951a	-0.14998284
56	0xbdbd1151	-0.092318185
57	0xbd95ee42	-0.07320835
58	0x3de3750d	0.1110631
59	0x3d0de8d9	0.03464589
60	0xbcff78e5	-0.031185577
61	0x3d6481f3	0.05578799
62	0xbdfb1335	-0.12259523
63	0x3daa20a9	0.08307011
64	0x3d51cdce	0.05122166
65	0x3d818f0b	0.063261114
66	0xbdc3fdb5	-0.09569875
67	0xbd980ab1	-0.07423914
68	0x3d256cfc	0.04038714
69	0x3d49ed32	0.049298473
70	0xbaf49fa3	-0.0018663298
71	0x3d9d14f6	0.076700136
72	0xbe01b298	-0.12665784
73	0x3dae0ce7	0.08498555
74	0xbcb3258b	-0.021868488
75	0x3dfea743	0.124342464
76	0x3d8c72ed	0.06857858
77	0x3dcc91f1	0.099887736
78	0xbdb94592	-0.090464726
79	0xbdc1ac3e	-0.09456681
80	0x3de83de1	0.113399275
81	0xbc942053	-0.01808182
82	0xbd85b826	-0.06529264
83	0xbdded523	-0.10880496
84	0xbb6eb36a	-0.0036422857
85	0x3d9b7d82	0.07592298
86	0xbd698fae	-0.05702179
87	0xbd1d457c	-0.038396344
88	0xbd0e2bbe	-0.034709685
89	0x3c1d552c	0.009602826
90	0x3cf9de24	0.030501433
91	0x3e196dd5	0.14983304
92	0x3d1e7e0c	0.038694426
93	0xbd61fd64	-0.055173293
94	0x3debf265	0.115208425
95	0x3d53101d	0.05152904
96	0xbd9507c1	-0.072768696
97	0x3dd27e12	0.10277952
98	0xbd76c1be	-0.06024336
99	0xbd2bfebd	-0.041990984
100	0x3db3c65f	0.08778071
101	0x3d6bcfb4	0.057571128
102	0x3dd890fa	0.10574527
103	0xbbb759e4	-0.0055954326
104	0xbc62caab	-0.013842265
105	0x3c172ccb	0.009226988
106	0xbe2a76e8	-0.16646922
107	0xbcb6308e	-0.02223995
108	0x3d919776	0.07108967
109	0x3de99cd9	0.114068694
110	0x3dacf17e	0.084444985
111	0xbdbd51ad	-0.09244094
112	0x3db549bc	0.08851954
113	0x3df465d0	0.11933482
114	0xbddb669a	-0.10712929
115	0x3c94ac08	0.018148437
116	0x3db9a3d9	0.090644546
117	0x3d8a7efd	0.06762502
118	0xbb226db7	-0.0024784633
119	0x3e15bedc	0.14623588
120	0x3dd319f1	0.10307682
121	0x3dca7f6a	0.098875836
122	0xbbb95835	-0.005656267
123	0xbd44974f	-0.04799586
124	0x3d80563b	0.06266447
125	0x3d0fda13	0.03512008
126	0xbd291542	-0.04128004
127	0xbcbfc6d0	-0.02341023
128	0x3cbab28a	0.022790212
129	0x3dbe2242	0.09283878
130	0x3c83886d	0.016056264
131	0xbd4af7fc	-0.049552903
132	0x3ccc49b5	0.02493749
133	0x3c53d111	0.012928263
134	0xbc26152f	-0.0101368865
135	0x3deb8052	0.114990845
136	0xbcbfdbc0	-0.023420215
137	0x3cf07c58	0.029356167
138	0x3df3a487	0.118966155
139	0x3dc7cfc6	0.097564265
140	0x3af9690a	0.0019028496
141	0x3d373e84	0.044737354
142	0x3d1575a2	0.036489137
143	0x3da91722	0.08256365
144	0x3ca523b8	0.020158634
145	0x3db57a9f	0.08861279
146	0x3e0868bd	0.13321204
147	0x3d436384	0.047702327
148	0x3dc5fc49	0.0966726
149	0xbc449b94	-0.011999983
150	0xbb778fc3	-0.0037774898
151	0xbcde16d0	-0.027110487
152	0x3d5ebfd3	0.054382157
153	0x3d9f7a4d	0.07786999
154	0x3c5534bb	0.01301306
155	0xbdc08c2b	-0.09401735
156	0x3d4ff3c4	0.050769582
157	0x3daa76c0	0.08323431
158	0xbd6cce25	-0.057813782
159	0xbc90e37b	-0.017686596
160	0x3dd056e7	0.10172825
161	0xbb8d132d	-0.0043052644
162	0xbe1881ad	-0.14893217
163	0x3ded2542	0.11579372
164	0x3d8e89e0	0.06959891
165	0x3d1fee2c	0.039045498
166	0xbdb61f4e	-0.0889269
167	0xbc9bf9d4	-0.019040026
168	0x3e12d57c	0.1433925
169	0xbcff23c0	-0.031144977
170	0x3e0b3d14	0.13597518
171	0x3d74730f	0.05968004
172	0xbe1d8cc9	-0.15385737
173	0xbd594026	-0.053039692
174	0xbdab80c4	-0.083741695
175	0x3d00f452	0.031483002
176	0xbd81ef48	-0.063444674
177	0x3c9f101f	0.019416867
178	0xbdfde5a1	-0.12397314
179	0xbda87c1d	-0.08226798
180	0xbc35aaf1	-0.011088119
181	0xbdbc606e	-0.0919808
182	0xbd82884b	-0.06373652
183	0xbd790eb7	-0.06080505
184	0x3d0e4a15	0.03473862
185	0xbc6dc9c0	-0.014513433
186	0xbda127a2	-0.078688875
187	0xbd6bfdd0	-0.0576151
188	0xbd856b99	-0.06514663
189	0x3e0c01fa	0.13672629
190	0x3dc6a9d5	0.09700362
191	0xbbb2a066	-0.00545125
192	0xbc890224	-0.016724654
193	0x3c25ecfd	0.010127303
194	0x3da6989f	0.08134579
195	0x3b32f9f6	0.0027309633
196	0xbd096c4b	-0.03355054
197	0x3c1fcfbc	0.009754118
198	0xbcc24ba0	-0.023717701
199	0x3db8582e	0.09001194
200	0xba576849	-0.0008217139
201	0x3e4088f2	0.1880224
202	0x3da24d8a	0.07924946
203	0x3d66b1ef	0.056322034
204	0x3dd52402	0.104072586
205	0x3cbf05d8	0.023318216
206	0xbcfa3078	-0.03054069
207	0xbd847e24	-0.06469372
208	0x3d874b88	0.06606203
209	0xbda29010	-0.07937634
210	0xbe10e66e	-0.14150402
211	0xbe349eca	-0.17638698
212	0x3da2bd64	0.0794628
213	0x3e21a5da	0.15785924
214	0x3d6034c9	0.05473784
215	0x3dfdbc0a	0.12389381
216	0xbb96bbde	-0.004600032
217	0xbe002891	-0.12515475
218	0x3d607847	0.054802205
219	0xbcfbedb1	-0.030752989
220	0xbdf6b2f8	-0.12045854
221	0x3d2f8ef2	0.042860933
222	0x3c24c67e	0.01005709
223	0xbdb4c966	-0.08827476
224	0xbe01d88e	-0.12680265
225	0x3d1f1c6c	0.038845465
226	0xbe1d6eb3	-0.1537426
227	0x3e189668	0.14901125
228	0xbd9524b8	-0.07282394
229	0xbdadaacc	-0.084798425
230	0xbd05f989	-0.03270868
231	0x3dcd26be	0.10017155
232	0x3d80a8b7	0.0628218
233	0xbdc10d1a	-0.09426327
234	0xbd98e0bd	-0.074647404
235	0xbd99d27f	-0.07510852
236	0xbd90d725	-0.070722856
237	0x3b171814	0.0023055123
238	0x3d665125	0.05622973
239	0x3dd105ac	0.1020616
240	0x3d5e7307	0.054308917
241	0x3d2e4233	0.0425436
242	0x3dd2d89a	0.1029522
243	0x3d322aeb	0.04349796
244	0xbdb3a605	-0.087719
245	0xbc38d990	-0.01128234
246	0xbde881ea	-0.11352904
247	0x3b84987b	0.0040464974
248	0xbd677f70	-0.05651802
249	0x3ce7c90c	0.028294109
250	0xbd96d0d7	-0.07364052
251	0x3dca65ca	0.09882696
252	0xbdc59397	-0.09647291
253	0x3bb4a036	0.0055122627
254	0xbd218d7e	-0.039441578
255	0x3d901a56	0.07036273

bias_8 f4 [100]
0	0x3d0e6317	0.03476247
1	0xbb89e207	-0.0042078528
2	0x3d127745	0.035758276
3	0x3da3e443	0.08002522
4	0x3d8d1b28	0.06889945
5	0x3c81b1ec	0.01583191
6	0x3dd8b62e	0.10581623
7	0x3e14c81b	0.14529459
8	0x3da1c9b6	0.078998014
9	0x3d306be6	0.04307165
10	0x3d80cb35	0.06288759
11	0xbbace67a	-0.0052764984
12	0x00000000	0.0
13	0x3d06cdcf	0.032911118
14	0x3d83f40e	0.06443034
15	0x3d9fb9e0	0.07799125
16	0x3b0d9040	0.0021600872
17	0x3c512abe	0.012766538
18	0x3da685ed	0.08131013
19	0x3debde85	0.115170516
20	0x3d376d10	0.044781744
21	0xbba6bbbf	-0.005088299
22	0xba96ec4f	-0.0011514517
23	0x3d9bc929	0.07606728
24	0x3d875b9a	0.066092685
25	0x39246ca7	0.00015680735
26	0x39abf4a0	0.0003279792
27	0x3d332762	0.04373873
28	0x3d684ae2	0.05671204
29	0x3d521884	0.05129291
30	0x3d339fe5	0.04385366
31	0x3d6c5fa9	0.057708416
32	0x3d79ca53	0.060983967
33	0xba9eb84e	-0.001210937
34	0x3d3ad68f	0.045614775
35	0x3aa6e5f6	0.0012733329
36	0x3d327145	0.043565053
37	0xbba0c318	-0.0049060695
38	0x3b3cb4d0	0.0028794296
39	0x3b733e7b	0.0037116099
40	0x3d26d6a4	0.04073204
41	0x3d0c1ad1	0.03420526
42	0x3bfcd361	0.007715628
43	0x3cad5f11	0.021163495
44	0x3e0f247a	0.13978758
45	0xbd383457	-0.04497179
46	0x3b4e0f52	0.0031442237
47	0x3e48cf39	0.19610299
48	0x3e172a56	0.14762244
49	0xbc67e452	-0.014153557
50	0x3bf3a16c	0.0074350145
51	0x3d36da0b	0.044641536
52	0x3cdb5371	0.026773186
53	0x3c80c710	0.01571992
54	0x3debe06c	0.115174145
55	0x3cb98287	0.022645248
56	0xbccb2118	-0.024796054
57	0x3e0793b4	0.13239938
58	0xbc5e2fc3	-0.013561192
59	0x3d5909c7	0.05298784
60	0x3d4609f7	0.048349347
61	0x3e163264	0.1466766
62	0xb682c416	-3.8971293e-06
63	0x3d4bf5c6	0.049794935
64	0x3de1e41c	0.110298365
65	0x3b51acd2	0.0031993878
66	0x3ce6def1	0.028182479
67	0x3d3cd3b1	0.046100322
68	0x3d59d176	0.053178273
69	0x3d026018	0.031829923
70	0x3c889a3c	0.016675107
71	0x3d929ad3	0.071584366
72	0x3a87bf97	0.0010356781
73	0x3dc37f79	0.09545798
74	0x3d56412e	0.052308254
75	0xbb9576ca	-0.00456128
76	0x3d272d25	0.040814538
77	0x3d01b7b1	0.031669322
78	0xbb281568	-0.0025647525
79	0x3dbc9ead	0.092099525
80	0xbbabe5fa	-0.005245921
81	0x3c9a7de8	0.018858865
82	0x3df99dd2	0.12188305
83	0x3d2b7e28	0.04186836
84	0x3aa99f7f	0.001294121
85	0x3db05f1e	0.08611892
86	0x3ca360bf	0.019943593
87	0x3d6e5156	0.058183037
88	0x3bcf79f6	0.0063316775
89	0x3ce0f651	0.027461203
90	0x3dd0e41c	0.101997584
91	0xbc8f8f8c	-0.017524503
92	0x3bc00271	0.005859666
93	0x3d49f0e1	0.049301986
94	0x3c781f86	0.0151442345
95	0xbbd6d153	-0.006555715
96	0x3bdd9db0	0.0067631826
97	0xbbbeff1a	-0.0058287503
98	0x3cc9f09b	0.024650862
99	0x3cddb21d	0.02706247
